app/src/main/res/raw/mobile_classifier_apple.onnx (onnx, 39612 bytes, 4 tensors)

coefficient f4 [60, 150]
-0.31970343 0.13718076 0.5594111 1.4209337 -0.018064486 0.0 0.07266981 1.8098385
1.5373743 -1.1351342 0.086387336 -0.3956191 -0.23051512 0.3430778 0.3074678 -0.86125654
-1.1576289 -0.4156868 0.059892748 1.5621405 0.34662938 1.1460986 -0.35853347 -0.19450845
0.07220206 1.5717862 -0.11593896 0.8435116 0.0 -0.47264487 0.87518775 0.79290533
-1.2002761 0.54256487 -0.2931904 1.7405884 -2.474564 0.67985666 0.26543316 -2.5062792
-1.0596855 -0.0 -0.0 0.756339 -0.97974175 -1.5389637 -0.81599927 -0.53728753
0.12070122 -0.8954152 -0.16057107 -1.4344617 -0.04622789 0.23138799 -1.8731499 -0.2920487
3.281701 1.2507061 -0.56210184 -0.41014624 1.7132816 -0.35109812 3.1815589e-24 0.8319865
-1.7280079 1.1442628 0.120245144 3.121361 0.11835999 1.1434398 1.5830715 0.0758003
0.09875649 0.52044433 1.0000291 -0.080024205 2.6084757 -0.012191456 0.0 1.0745647
1.8986375 -0.0 0.35042688 -1.0193871 0.08548908 -0.85027814 -0.0 -0.46401295
-3.342973 0.41818923 -1.1252546 -1.3324442 -1.1930677 0.42153227 -0.150638 -0.0
-1.562443 -0.78223497 -0.0 0.9837224 0.380705 0.0055356957 -1.0273644 1.194046
-2.0183203 2.1922452 -0.52786285 0.5998521 -1.6723331 0.0 -0.27001557 1.8652381
-0.4958017 -0.6297397 0.0 1.2430515 1.3449599 -0.09165734 3.2497978 -0.0
-1.3964294 -0.2224475 -2.126076 -0.0 -0.15752023 0.3234751 -1.2740229 -2.673355
-1.7292211 2.4484246 0.02893882 1.0285261 0.0 -0.9722457 0.7407252 -0.68073934
-0.33385357 -0.0 0.23663764 0.20789655 -2.7136045 0.0 -0.0 0.31585476
0.26449588 0.56637347 -0.5619742 -0.8411518 0.0 0.44173422 -0.056677572 -0.24948494
0.4836027 1.0737516 0.37037727 0.0 0.3511794 0.6539057 0.6977582 -0.5383418
0.022969633 0.104328334 -0.32625163 -0.16461024 -0.16045044 -0.55329525 0.16249424 0.40467128
0.22516963 0.3923885 0.30991986 -0.4148272 -0.019339185 -0.0020688805 0.02340944 0.8140298
0.53492284 -0.48635715 -0.0 -0.41200274 0.51226556 0.06699106 -0.8218779 -0.926809
-0.3767526 0.663764 -1.1782157 0.06084268 0.45444292 -0.9482047 -0.7470437 0.0
-0.0 -0.4994062 -0.46855518 -0.38594043 -0.2638816 -0.42840073 -0.29441202 -0.45609114
-0.45698285 -1.300266 0.45038345 0.37709877 -0.4529348 -0.65473557 1.4563463 0.3897319
-0.16846545 -0.12380048 0.464013 -0.27281007 -2.4224908e-26 0.96172845 -1.0603034 -0.1813484
0.59360045 1.3512058 -0.11171466 0.48290685 0.35638252 0.61236614 0.36120299 0.20215295
-0.14777793 -0.06486352 0.30592978 0.10353005 0.0 -0.027608601 0.9349423 -0.0
0.35003093 0.18900785 0.48143667 -0.24102315 -0.0 -0.8966471 -1.215102 -0.07554216
0.13228837 -0.7338632 -0.94945097 -0.16861561 0.24936211 -0.0 -0.20519687 -0.26778504
-0.0 0.5617062 -0.012974307 0.1907915 -0.42231956 -0.0012401785 -0.79043907 0.9719829
00000000: 2bb0 a3be 1d79 0c3e 9135 0f3f 28e1 b53f
00000010: f9fb 93bc 0000 0000 e9d3 943d caa8 e73f
00000020: aec8 c43f 144c 91bf d8eb b03d 968e cabe
00000030: 280c 6cbe e5a7 af3e 6b6c 9d3e 4f7b 5cbf
00000040: 2f2d 94bf e6d4 d4be 1952 753d 38f4 c73f
00000050: 6879 b13e 5cb3 923f b391 b7be 392d 47be
00000060: acde 933d 4a30 c93f 6871 edbd 60f0 573f
00000070: 0000 0000 82fe f1be 4e0c 603f d8fb 4a3f
00000080: a6a2 99bf 88e5 0a3f 0d1d 96be 9acb de3f
00000090: 425f 1ec0 160b 2e3f dbe6 873e e166 20c0
000000a0: c6a3 87bf 0000 0080 0000 0080 6f9f 413f
000000b0: 5bd0 7abf c3fc c4bf 54e5 50bf ad8b 09bf
000000c0: 3432 f73d ee39 65bf be6c 24be 719c b7bf
000000d0: 7559 3dbd f9f0 6c3e 60c3 efbf 6887 95be
000000e0: 6407 5240 2317 a03f e8e5 0fbf b0fe d1be
000000f0: d04c db3f 22c3 b3be 4429 7618 11fd 543f
00000100: 5d2f ddbf 3477 923f 1643 f63d 61c4 4740
00000110: b966 f23d 3c5c 923f 16a2 ca3f 303d 9b3d
00000120: d840 ca3d d73b 053f f400 803f bbe3 a3bd
00000130: 44f1 2640 acbe 47bc 0000 0000 568b 893f
00000140: 8e06 f33f 0000 0080 276b b33e 477b 82bf
00000150: e614 af3d d4ab 59bf 0000 0080 1b93 edbe
00000160: 45f3 55c0 e61c d63e 5808 90bf 888d aabf
00000170: 71b6 98bf 14d3 d73e d940 1abe 0000 0080
00000180: 22fe c7bf 8d40 48bf 0000 0080 3bd5 7b3f
00000190: c4eb c23e c864 b53b ad80 83bf 80d6 983f
000001a0: 292c 01c0 bf4d 0c40 0522 07bf e88f 193f
000001b0: 030f d6bf 0000 0000 7b3f 8abe 1fc0 ee3f
000001c0: b8d9 fdbe 9f36 21bf 0000 0000 501c 9f3f
000001d0: a527 ac3f d8b6 bbbd b0fc 4f40 0000 0080
000001e0: 33be b2bf 47c9 63be a111 08c0 0000 0080
000001f0: fc4c 21be 879e a53e 2f13 a3bf 4018 2bc0
00000200: 1e57 ddbf fdb2 1c40 1b11 ed3c bea6 833f
00000210: 0000 0000 18e5 78bf 2ba0 3d3f ef44 2ebf
00000220: dbee aabe 0000 0080 2351 723e d5e2 543e
00000230: b2ab 2dc0 0000 0000 0000 0080 b7b7 a13e
00000240: 016c 873e dafd 103f 8bdd 0fbf b955 57bf
00000250: 0000 0000 fd2a e23e be26 68bd fb78 7fbe
00000260: c69a f73e b170 893f 17a2 bd3e 0000 0000
00000270: c9cd b33e 5d66 273f 48a0 323f c5d0 09bf
00000280: d02a bc3c 18aa d53d 740a a7be 968f 28be
00000290: 1f4d 24be c2a4 0dbf e464 263e 1331 cf3e
000002a0: de92 663e 25e7 c83e d1ad 9e3e 3b64 d4be
000002b0: 366d 9ebc 0e96 07bb 27c5 bf3c 4264 503f
000002c0: b4f0 083f ce03 f9be 0000 0080 06f2 d2be
000002d0: d623 033f 9c32 893d 9766 52bf 5b43 6dbf
000002e0: b7e5 c0be 70ec 293f c6cf 96bf 2d36 793d
000002f0: beac e83e 8bbd 72bf 423e 3fbf 0000 0000
00000300: 0000 0080 2bb2 ffbe 77e6 efbe fc99 c5be
00000310: 7d1b 87be 5757 dbbe 2cbd 96be c784 e9be
00000320: a8f9 e9be 1e6f a6bf a998 e63e 1713 c13e
00000330: 12e7 e7be c09c 27bf 8e69 ba3f f18a c73e
00000340: 3582 2cbe 1b8b fdbd 1d93 ed3e c3ad 8bbe
00000350: 70e9 ef94 d633 763f 06b8 87bf 65b3 39be
00000360: 33f6 173f 50f4 ac3f a8ca e4bd 913f f73e
00000370: c577 b63e 07c4 1c3f 99ef b83e 2f01 4f3e
00000380: 1953 17be 2ad7 84bd d4a2 9c3e 9007 d43d
00000390: 0000 0000 6f2b e2bc 6158 6f3f 0000 0080
000003a0: 4137 b33e 468b 413e de7e f63e c6ce 76be
000003b0: 0000 0080 aa8a 65bf 7688 9bbf d9b5 9abd
000003c0: 9a76 073e 75de 3bbf 380f 73bf 92a9 2cbe
000003d0: c858 7f3e 0000 0080 211f 52be 1f1b 89be
000003e0: 0000 0080 facb 0f3f 3092 54bc d95e 433e
000003f0: 453a d8be 7c8d a2ba 375a 4abf dfd3 783f

intercepts f4 [1, 150]
-0.513806 -0.101569295 0.37324372 -0.096856944 -1.2980058 -0.34788433 -1.1492505 -0.049802635
-0.982313 -0.4535469 -0.79180163 -1.9866052 -0.6101312 -0.6710244 0.10594942 -0.43274006
0.41940755 -1.8705348 -3.0432405 0.6994553 -0.356086 -1.6991118 -2.043363 -0.32499364
-2.3403668 -2.6450133 0.9782925 -1.4540153 -2.0448027 -2.6477928 1.3155113 0.4480087
-0.3175221 -1.719073 -0.9032383 0.04150071 -1.1443563 -0.7401612 0.5703274 -0.15734854
-0.34631947 -0.4525144 -0.16609338 -1.0340854 0.63558584 -1.2013786 -1.7186768 -1.504214
0.10157038 -1.4809626 -0.26785433 -2.7873015 1.0879751 0.47514528 -0.354748 -1.742671
-1.433345 -1.1232646 -2.419965 -0.21115477 0.11411281 -1.4258043 -1.0182712 -0.1460865
-2.8131359 0.84310204 -0.007308604 -0.9619204 -3.112223 0.4280862 -0.7701055 -0.113598414
-0.86588794 -0.61675704 -0.10281182 -2.6111107 -0.23528665 0.6079951 -0.3920618 0.46341005
-1.161947 -0.17340828 -2.3091571 -0.5871452 -0.7473467 -0.6579591 -0.4708206 0.2119625
-1.2281339 -1.7192825 1.1133175 -0.09619595 -0.62173885 1.1028771 -0.638262 -0.24967003
0.17593086 -0.49214014 -0.36474624 -4.3852506 -0.69451755 -2.349818 -2.0162513 -0.2049082
-0.9668067 -0.85069555 0.9223529 -0.2110386 -1.6450722 -0.2631142 0.7236302 -0.46026233
0.6555566 0.09542665 -0.19301485 -0.772175 -0.20743667 -0.44727927 -0.5763105 -0.5515106
-1.2136848 -0.2707214 -3.09289 -0.27932134 -2.6152961 -0.3670524 -0.35347623 -0.7923252
0.05951912 -0.62709194 -0.12041808 -1.9226557 -0.14979278 -0.4130639 -0.72971094 -0.602434
-2.606667 -0.50745225 -0.9289672 0.2549928 -1.3188465 -0.18017009 -0.84590304 -0.25853455
-1.6324375 -0.6404615 -1.5124993 1.5348345 -0.72877574 -5.410487
00000000: ca88 03bf 9003 d0bd cd19 bf3e ef5c c6bd
00000010: 0e25 a6bf e51d b2be a41a 93bf d9fd 4bbd
00000020: dd78 7bbf 4d37 e8be 83b3 4abf 1449 febf
00000030: 8f31 1cbf 41c8 2bbf 02fc d83d 1b90 ddbe
00000040: 96bc d63e af6d efbf 74c4 42c0 810f 333f
00000050: e750 b6be 7f7c d9bf 76c6 02c0 9165 a6be
00000060: 92c8 15c0 e647 29c0 6171 7a3f 2c1d babf
00000070: 0cde 02c0 7075 29c0 ad62 a83f 6561 e53e
00000080: 4292 a2be 960a dcbf a03a 67bf a6fc 293d
00000090: 447a 92bf 347b 3dbf fa00 123f fa1f 21be
000000a0: c950 b1be f8af e7be 6214 2abe e95c 84bf
000000b0: c1b5 223f c6c6 99bf 9afd dbbf 168a c0bf
000000c0: 2204 d03d 2f90 bdbf 3424 89be 2663 32c0
000000d0: c542 8b3f 3e46 f33e 88a1 b5be d80f dfbf
000000e0: d977 b7bf 22c7 8fbf b5e0 1ac0 f538 58be
000000f0: fab3 e93d c180 b6bf b656 82bf b397 15be
00000100: 6b0a 34c0 89d5 573f 047d efbb 6a40 76bf
00000110: a92e 47c0 1d2e db3e a225 45bf 49a6 e8bd
00000120: d5aa 5dbf cae3 1dbf 018f d2bd 701c 27c0
00000130: fcee 70be 91a5 1b3f 53bc c8be 1544 ed3e
00000140: aeba 94bf f191 31be 3bc9 13c0 264f 16bf
00000150: 1d52 3fbf 0270 28bf 660f f1be b30c 593e
00000160: 7e33 9dbf 7311 dcbf 3081 8e3f 6202 c5bd
00000170: 472a 1fbf 142b 8d3f 2365 23bf 80a9 7fbe
00000180: 3827 343e cbf9 fbbe 05c0 babe f953 8cc0
00000190: e7cb 31bf 6b63 16c0 430a 01c0 75d3 51be
000001a0: a580 77bf 2fc7 59bf 521f 6c3f 811a 58be
000001b0: ba91 d2bf e8b6 86be d43f 393f 81a7 ebbe
000001c0: 8fd2 273f 0c6f c33d afa5 45be 43ad 45bf
000001d0: 476a 54be ca01 e5be 1689 13bf cc2f 0dbf
000001e0: 065a 9bbf ff9b 8abe e9f1 45c0 3503 8fbe
000001f0: 0361 27c0 4bee bbbe d6fa b4be d3d5 4abf
00000200: 52ca 733d 1989 20bf c19d f6bd 9519 f6bf
00000210: 4763 19be 1d7d d3be 56ce 3abf 1d39 1abf
00000220: a2d3 26c0 64e8 01bf cbd0 6dbf 6b8e 823e
00000230: f6cf a8bf 827e 38be 1a8d 58bf a45e 84be
00000240: b6f3 d0bf 49f5 23bf 9499 c1bf 7575 c43f
00000250: 0c91 3abf b622 adc0

coefficient1 f4 [150, 3]
0.30877537 -0.45991617 0.24344334 0.5205817 -0.3034643 -0.021856058 0.20869312 0.22355731
-0.23410363 -1.8198372 4.236342 -2.9849024 -3.5168684 2.1393554 -0.24256954 -0.0
-0.0 -0.0 1.069966 0.15735127 -1.0647389 0.5077838 -0.58571756 0.19428031
-0.15333977 -0.48004073 0.69071037 -0.37649176 0.35257635 -0.2206115 -0.43015164 0.31181315
0.09763908 5.8153524 -4.5865555 -2.0276332 -1.044472 0.4031054 0.56818783 -0.6191114
0.23067445 0.481193 0.34874368 -1.0746436 0.9939901 -3.276167 -0.08203195 3.9964492
0.08281581 0.37258705 -0.60739976 0.7969341 2.8222327 -13.254789 0.20043443 0.33705813
-0.7422441 0.006334148 -0.8855254 0.7643651 0.24776484 0.36710358 -0.3296092 -1.1873212
-0.9857396 2.0430584 0.1286828 -0.5175588 -0.07149665 -0.31934768 0.15881823 -0.12220799
-1.0109746 0.3955919 0.39276898 -5.667772 4.101324 1.0499285 -0.11519853 0.67517203
-0.6534136 -0.63560337 -0.6838495 1.4433206 -0.0 -0.0 -0.0 1.2002342
-1.4729501 1.5698984 0.08405176 -0.6795537 0.50602394 -1.6660714 0.65984756 0.933218
0.6061777 -0.23175713 -0.32268408 -7.1095805 0.29702058 6.6044393 0.7013998 -0.14761174
-0.3010944 -0.67340714 -0.19024095 0.9369601 0.505938 0.28697807 -0.99360305 3.695388
-2.4108856 -2.2518353 1.9194264 -1.9847554 -0.36416054 1.5281843 0.54970866 -2.6941996
-0.45965916 0.464007 0.009739545 0.0 0.0 0.0 -0.0 -0.0
-0.0 -0.44635156 -0.39478108 0.6503253 1.3226643 -0.108651705 -1.2698361 1.0457504
0.9726307 -2.0936074 4.4321904 -3.04232 -2.1282122 1.3190472 -4.430623 4.923848
-0.13656099 -0.20696466 0.20670976 3.3082368 -3.6991372 0.43348825 -1.0896336 -0.26236892
1.7200329 3.5032327 -4.4036307 -0.070134394 -0.32747337 0.36174676 -0.070903376 -0.4881599
0.66416943 -0.02940544 -3.3993864 6.509673 -2.1554952 -0.4861077 -1.0153801 1.5097371
-5.168268 1.2624049 1.5450495 0.9390454 -0.9029483 0.13062356 1.1886363 -0.15756911
-0.8946649 0.022366496 0.5990926 -0.8972846 0.5262847 -0.7251775 0.12701567 -0.4370911
1.4454348 -0.7089854 -0.001580438 -0.0027892387 -0.0020667946 -0.0769757 1.0862103 -0.8929674
-5.2922816 0.806035 4.339457 -0.16308482 -0.27767223 0.3213539 1.5853801 0.24641618
-1.9465806 0.8364844 -10.764378 6.8840327 -1.7286513 0.3813434 0.95177275 0.6798667
-0.6460512 0.13728109 -0.109520055 -0.585088 0.12613046 -1.1481452 1.0743467 -0.5593768
1.2758719 -0.3119256 -0.8692668 2.9771805 -6.1938024 2.8287904 -0.6268857 -0.010701018
0.52737343 -0.8508338 4.5962353 -3.594481 4.869873 -10.480019 5.839479 -0.819286
0.7482743 0.011607746 0.0 -0.0 0.0 0.043578185 -0.37739658 0.29556635
-2.7107363 1.1178042 0.82894367 -0.0 0.0 0.0 0.338409 -0.2703584
-0.019538216 0.1364944 3.3134139 -6.348197 0.849659 -0.058671456 -0.85197437 4.9563446
00000000: ce17 9e3e 227a ebbe 3649 793e d844 053f
00000010: ac5f 9bbe 7a0b b3bc a6b3 553e 35ec 643e
00000020: ddb8 6fbe 6df0 e8bf 1d90 8740 a408 3fc0
00000030: 5f14 61c0 33eb 0840 2664 78be 0000 0080
00000040: 0000 0080 0000 0080 a5f4 883f b120 213e
00000050: 5d49 88bf 1efe 013f 96f1 15bf 6bf1 463e
00000060: 1a05 1dbe e6c7 f5be 65d2 303f 87c3 c0be
00000070: e384 b43e fbe7 61be d63c dcbe f9a5 9f3e
00000080: fff6 c73d 5e17 ba40 10c5 92c0 bec4 01c0
00000090: 42b1 85bf d563 ce3e c274 113f 167e 1ebf
000000a0: ec35 6c3e ee5e f63e 888e b23e ec8d 89bf
000000b0: 2376 7e3f b8ac 51c0 5e00 a8bd d3c5 7f40
000000c0: 569b a93d bbc3 be3e 8d7e 1bbf e003 4c3f
000000d0: 769f 3440 9e13 54c1 af3e 4d3e e292 ac3e
000000e0: b603 3ebf af8e cf3b cbb1 62bf 6ead 433f
000000f0: 11b6 7d3e 00f5 bb3e 89c2 a8be 24fa 97bf
00000100: 6e59 7cbf 78c1 0240 6dc5 033e bc7e 04bf
00000110: d66c 92bd 8a81 a3be 3fa1 223e 2f48 fabd
00000120: 9e67 81bf 068b ca3e 0419 c93e 635e b5c0
00000130: 0c3e 8340 0f64 863f 35ed ebbd 13d8 2c3f
00000140: 1d46 27bf e7b6 22bf c310 2fbf bbbe b83f
00000150: 0000 0080 0000 0080 0000 0080 46a1 993f
00000160: a189 bcbf 6ef2 c83f 5423 ac3d 3bf7 2dbf
00000170: c98a 013f d441 d5bf c5eb 283f 60e7 6e3f
00000180: 762e 1b3f be51 6dbe d936 a5be af81 e3c0
00000190: 1513 983e 9157 d340 f08e 333f 8827 17be
000001a0: 0c29 9abe 6964 2cbf 86ce 42be 9edc 6f3f
000001b0: 2785 013f caee 923e c55c 7ebf 3d81 6c40
000001c0: f34b 1ac0 121e 10c0 c4af f53f 770c febf
000001d0: 4073 babe 8b9b c33f b5b9 0c3f c46d 2cc0
000001e0: 7258 ebbe 5392 ed3e 9d92 1f3c 0000 0000
000001f0: 0000 0000 0000 0000 0000 0080 0000 0080
00000200: 0000 0080 3188 e4be bf20 cabe b87b 263f
00000210: 104d a93f c984 debd fd89 a2bf 26db 853f
00000220: 53fe 783f aafd 05c0 81d4 8d40 5fb5 42c0
00000230: a134 08c0 8ad6 a83f aac7 8dc0 2a90 9d40
00000240: a5d6 0bbe 8bee 53be b9ab 533e 27ba 5340
00000250: aabe 6cc0 2cf2 dd3e 1d79 8bbf 3855 86be
00000260: 0a2a dc3f f734 6040 8bea 8cc0 9fa2 8fbd
00000270: 97aa a7be df36 b93e ca35 91bd 18f0 f9be
00000280: 0207 2a3f ade3 f0bc 8c8f 59c0 3e4f d040
00000290: a2f3 09c0 1ce3 f8be faf7 81bf 113f c13f
000002a0: 7462 a5c0 7c96 a13f 2fc4 c53f 4865 703f
000002b0: 9f27 67bf 2fc2 053e 3c25 983f cc59 21be
000002c0: c208 65bf f139 b73c 225e 193f 72b4 65bf
000002d0: 98ba 063f 3ca5 39bf 6510 023e 68ca dfbe
000002e0: 0204 b93f 1180 35bf b326 cfba a9cb 36bb
000002f0: 0f73 07bb 70a5 9dbd f008 8b3f 8399 64bf
00000300: 5f5a a9c0 4f58 4e3f d5dc 8a40 b5ff 26be
00000310: 0e2b 8ebe 8088 a43e bced ca3f 8654 7c3e
00000320: 8e29 f9bf d723 563f e43a 2cc1 ff49 dc40
00000330: 7244 ddbf 713f c33e 61a7 733f be0b 2e3f
00000340: 9d63 25bf 6a93 0c3e 0d4c e0bd 54c8 15bf
00000350: 5828 013e 6cf6 92bf 3184 893f 5133 0fbf
00000360: c54f a33f b6b4 9fbe 4588 5ebf 208a 3e40
00000370: a133 c6c0 e70a 3540 957b 20bf 5353 2fbc
00000380: f201 073f 3ed0 59bf 5c14 9340 fa0b 66c0
00000390: 00d6 9b40 28ae 27c1 03dd ba40 babc 51bf
000003a0: e88e 3f3f 6a2e 3e3c 0000 0000 0000 0080
000003b0: 0000 0000 0a7f 323d 203a c1be 7954 973e
000003c0: b47c 2dc0 3514 8f3f a735 543f 0000 0080
000003d0: 0000 0000 0000 0000 f243 ad3e 6b6c 8abe
000003e0: 9c0e a0bc 30c5 0b3e f90e 5440 6e24 cbc0
000003f0: 4183 593f 7b51 70bd fe1a 5abf 609a 9e40

intercepts1 f4 [1, 3]
-0.018460734 -0.20665257 0.2448092
00000000: f73a 97bc bb9c 53be 43af 7a3e
