app/src/main/res/raw/mobile_classifier_apple_kiwi_blueberry.onnx (onnx, 239140 bytes, 9 tensors)

Mu_Mulcst f4 [68]
2.3427792 2.4258425 2.3211212 2.2669828 2.2476518 2.2257702 2.225238 2.1944802
2.140179 2.1029778 2.0562384 1.9631968 1.8463495 1.7417698 1.6688114 1.6242435
1.5930688 1.5786742 1.562113 1.5313054 1.4918237 1.4588798 1.4340006 1.4187772
1.4105955 1.4110882 1.4055828 1.4017671 1.4264705 1.4414951 1.4850823 1.5321318
1.5106279 1.3524063 1.2587088 1.2258234 1.2092731 1.2017183 1.2085121 1.201095
1.1977448 1.1811612 1.1804057 1.1726283 1.1634268 1.1543503 1.1488608 1.1470015
1.1507727 1.1734607 1.1809043 1.188679 1.1970407 1.1979301 1.2052532 1.2131761
1.2236366 1.232886 1.2414728 1.2610612 1.277176 1.3047029 1.3462543 1.38084
1.3998919 1.4155353 1.4209504 1.4253427
00000000: 18f0 1540 0141 1b40 408d 1440 3f16 1140
00000010: 87d9 0f40 0573 0e40 4d6a 0e40 5d72 0c40
00000020: b1f8 0840 3097 0640 6999 0340 084a fb3f
00000030: 2e55 ec3f 50f2 de3f 9d9b d53f 36e7 cf3f
00000040: aee9 cb3f ff11 ca3f 52f3 c73f d101 c43f
00000050: 14f4 be3f 93bc ba3f 558d b73f 7e9a b53f
00000060: 658e b43f 8a9e b43f 23ea b33f 1b6d b33f
00000070: 9696 b63f e982 b83f 2d17 be3f e51c c43f
00000080: 415c c13f a61b ad3f 5f1d a13f c8e7 9c3f
00000090: 76c9 9a3f e8d1 993f 86b0 9a3f 7bbd 993f
000000a0: b44f 993f 4a30 973f 8917 973f af18 963f
000000b0: 2beb 943f c0c1 933f df0d 933f f2d0 923f
000000c0: 854c 933f f633 963f df27 973f a226 983f
000000d0: a138 993f c655 993f bd45 9a3f 5b49 9b3f
000000e0: 20a0 9c3f 35cf 9d3f 95e8 9e3f 746a a13f
000000f0: 817a a33f 8100 a73f 1052 ac3f 5dbf b03f
00000100: a82f b33f 4330 b53f b4e1 b53f a171 b63f

Ad_Addcst f4 [68]
-0.08848927 -0.050968055 -0.020658677 -0.009112001 0.0 0.0 0.0 0.0
0.0 0.0 0.0 0.0 0.0 0.0 0.0 0.0
0.0 0.0 0.0 0.0 0.0 0.0 0.0 0.0
0.0 0.0 0.0 0.0 0.0 0.0 -0.0025260583 -0.0017690264
-0.0049206656 0.0 0.0 0.0 0.0 0.0 -0.005626992 -0.0047855712
-0.0060644266 -0.008059394 -0.00861732 -0.012262451 -0.014566374 -0.017725173 -0.019872842 -0.023065953
-0.024419991 -0.027043909 -0.027741518 -0.029663468 -0.031537265 -0.03279182 -0.033612825 -0.03427617
-0.036173906 -0.03695122 -0.036962844 -0.037454754 -0.036611103 -0.036038335 -0.034453124 -0.036744773
-0.04149386 -0.04771076 -0.055149127 -0.06284155
00000000: dd39 b5bd e1c3 50bd 633c a9bc 814a 15bc
00000010: 0000 0000 0000 0000 0000 0000 0000 0000
00000020: 0000 0000 0000 0000 0000 0000 0000 0000
00000030: 0000 0000 0000 0000 0000 0000 0000 0000
00000040: 0000 0000 0000 0000 0000 0000 0000 0000
00000050: 0000 0000 0000 0000 0000 0000 0000 0000
00000060: 0000 0000 0000 0000 0000 0000 0000 0000
00000070: 0000 0000 0000 0000 3a8c 25bb adde e7ba
00000080: 893d a1bb 0000 0000 0000 0000 0000 0000
00000090: 0000 0000 0000 0000 a162 b8bb 48d0 9cbb
000000a0: 19b8 c6bb 8c0b 04bc a92f 0dbc 73e8 48bc
000000b0: cda7 6ebc 6234 91bc 5fcc a2bc cff4 bcbc
000000c0: 6f0c c8bc 308b ddbc 2e42 e3bc cd00 f3bc
000000d0: 382d 01bd b750 06bd 9aad 09bd 2b65 0cbd
000000e0: 172b 14bd 2a5a 17bd 5a66 17bd 286a 19bd
000000f0: 86f5 15bd ef9c 13bd b81e 0dbd b081 16bd
00000100: 77f5 29bd 5c6c 43bd 0de4 61bd 12b3 80bd

coefficient f4 [68, 200]
-0.0 -0.0 0.0 0.0 -2.534543 -1.6058465 -0.0 0.0
-2.4416246 -0.0 2.8349812 -2.9037447 0.2166853 0.0 -2.3896887 2.4868443
-0.0 -0.0 2.099048 -1.9261194 0.0 2.1325824 0.0 -0.0
0.0 -0.0 0.9418068 0.0 3.0344806 0.0 0.0 -0.0
-0.15404868 0.054601997 0.0 0.0 -0.0 -0.0 -0.06664376 -0.0
0.0 0.99980026 0.0 -0.0 -0.92197216 -0.0 -0.0 -2.6701963
-0.0 0.0 -0.0 -1.2292291 0.09306038 0.0 1.0034393 -0.0
0.0 -0.0 -0.0 -0.0 -0.052733798 -1.0698862 0.0 0.0
0.0 0.9857008 -0.0 -0.0 -0.0 -0.0 0.0 2.4788303
-0.0 0.0 2.5407777 2.2090082 0.0 0.0 0.0 -1.3666816
0.0 0.46670717 0.39048275 -0.0 -1.7510883 -0.4616599 0.0 -0.0
1.0034413 -0.17042978 -0.14668907 -0.0 0.0 -1.3259827 -0.0 -0.20247684
-0.0 0.0 0.0 -0.7443316 -0.0 -0.0 -0.61806977 -0.0
0.0 0.0 -0.4441727 0.0 0.0 -0.0 -1.1611384 0.0
-0.0 -0.0 -0.0 -0.0 1.6293409 0.0 -0.0 0.0
0.0 -1.3029026 0.0 1.2453064 -0.0 -0.0 -0.0 1.8121363
0.06178308 0.0 2.2896771 -0.0 0.0 0.0 -0.7113937 0.0
0.0 -0.0 -1.3637388 0.0 -0.0 0.22770245 0.0 0.0
-0.0 -1.3207899 -0.0 1.2850078 -0.5538813 -0.0 2.4984176 -0.0
-0.0 -0.0 -0.0 -0.0 -1.3812442 0.0 -0.0 1.0872294
-0.0 -0.6808524 1.4616094 0.0 0.01864062 -0.0 -0.0 -0.0
-0.25121057 -0.028810753 0.6346776 -1.9595948 0.0 0.0 0.0 2.1702716
0.7807387 -0.0 -0.0 0.0 -0.0 0.0 -0.03765736 1.4586958
0.0 -0.0 0.0 1.9135998 -0.0 0.901036 0.4391387 0.19630663
1.3579814 -0.0 0.0 -0.8723364 0.45577723 1.6602452 -0.0 -0.0
-0.0 -0.0 -0.0 0.0 -1.8989242 0.11921092 -0.0 0.0
-0.5071634 -0.0 0.39828697 -0.29606548 -0.5154156 0.0 -0.9040387 0.14289428
-0.0 -0.0 -0.6738261 -0.8814469 -0.0 0.9803943 0.0 -0.0
-0.0 -0.0 -0.16251528 -0.0 1.2614076 -0.0 -0.0 -0.0
-0.690902 -1.156273 0.0 -0.0 0.0 0.0 1.0158235 -0.0
-0.0 0.9912913 -0.0 -0.0 -0.22210026 -0.0 0.0 -1.8867987
-0.0 0.0 -0.0 -0.9205403 -1.0807971 -0.0 0.5341397 0.0
00000000: 0000 0080 0000 0080 0000 0000 0000 0000
00000010: f435 22c0 618c cdbf 0000 0080 0000 0000
00000020: 9443 1cc0 0000 0080 5570 3540 f4d6 39c0
00000030: c0e2 5d3e 0000 0000 a9f0 18c0 7528 1f40
00000040: 0000 0080 0000 0080 cd56 0640 158b f6bf
00000050: 0000 0000 3b7c 0840 0000 0000 0000 0080
00000060: 0000 0000 0000 0080 401a 713f 0000 0000
00000070: ee34 4240 0000 0000 0000 0000 0000 0080
00000080: f0be 1dbe 58a6 5f3d 0000 0000 0000 0000
00000090: 0000 0080 0000 0080 867c 88bd 0000 0080
000000a0: 0000 0000 e9f2 7f3f 0000 0000 0000 0080
000000b0: 5e06 6cbf 0000 0080 0000 0080 7fe4 2ac0
000000c0: 0000 0080 0000 0000 0000 0080 6157 9dbf
000000d0: 7196 be3d 0000 0000 b370 803f 0000 0080
000000e0: 0000 0000 0000 0080 0000 0080 0000 0080
000000f0: 65ff 57bd 08f2 88bf 0000 0000 0000 0000
00000100: 0000 0000 e356 7c3f 0000 0080 0000 0080
00000110: 0000 0080 0000 0080 0000 0000 28a5 1e40
00000120: 0000 0080 0000 0000 1a9c 2240 6460 0d40
00000130: 0000 0000 0000 0000 0000 0000 6cef aebf
00000140: 0000 0000 3ef4 ee3e 5bed c73e 0000 0080
00000150: a923 e0bf b05e ecbe 0000 0000 0000 0080
00000160: c470 803f 2585 2ebe a935 16be 0000 0080
00000170: 0000 0000 cdb9 a9bf 0000 0080 1756 4fbe
00000180: 0000 0080 0000 0000 0000 0000 848c 3ebf
00000190: 0000 0080 0000 0080 d239 1ebf 0000 0080
000001a0: 0000 0000 0000 0000 9b6a e3be 0000 0000
000001b0: 0000 0000 0000 0080 2fa0 94bf 0000 0000
000001c0: 0000 0080 0000 0080 0000 0080 0000 0080
000001d0: 3e8e d03f 0000 0000 0000 0080 0000 0000
000001e0: 0000 0000 83c5 a6bf 0000 0000 3366 9f3f
000001f0: 0000 0080 0000 0080 0000 0080 15f4 e73f
00000200: 4110 7d3d 0000 0000 128a 1240 0000 0080
00000210: 0000 0000 0000 0000 e61d 36bf 0000 0000
00000220: 0000 0000 0000 0080 fe8e aebf 0000 0000
00000230: 0000 0080 d52a 693e 0000 0000 0000 0000
00000240: 0000 0080 a50f a9bf 0000 0080 237b a43f
00000250: 2acb 0dbf 0000 0080 13e6 1f40 0000 0080
00000260: 0000 0080 0000 0080 0000 0080 0000 0080
00000270: 9ccc b0bf 0000 0000 0000 0080 552a 8b3f
00000280: 0000 0080 584c 2ebf 0416 bb3f 0000 0000
00000290: 37b4 983c 0000 0080 0000 0080 0000 0080
000002a0: ac9e 80be 8704 ecbc 3b7a 223f 01d4 fabf
000002b0: 0000 0000 0000 0000 0000 0000 bbe5 0a40
000002c0: 7ede 473f 0000 0080 0000 0080 0000 0000
000002d0: 0000 0080 0000 0000 9b3e 1abd 8bb6 ba3f
000002e0: 0000 0000 0000 0080 0000 0000 d7f0 f43f
000002f0: 0000 0080 4caa 663f cad6 e03e 9b04 493e
00000300: 56d2 ad3f 0000 0080 0000 0000 7051 5fbf
00000310: a25b e93e ea82 d43f 0000 0080 0000 0080
00000320: 0000 0080 0000 0080 0000 0080 0000 0000
00000330: f30f f3bf db24 f43d 0000 0080 0000 0000
00000340: 76d5 01bf 0000 0080 45ec cb3e e595 97be
00000350: 47f2 03bf 0000 0000 156f 67bf e152 123e
00000360: 0000 0080 0000 0080 de7f 2cbf 81a6 61bf
00000370: 0000 0080 1ffb 7a3f 0000 0000 0000 0080
00000380: 0000 0080 0000 0080 686a 26be 0000 0080
00000390: ce75 a13f 0000 0080 0000 0080 0000 0080
000003a0: f4de 30bf c100 94bf 0000 0000 0000 0080
000003b0: 0000 0000 0000 0000 8106 823f 0000 0080
000003c0: 0000 0080 44c5 7d3f 0000 0080 0000 0080
000003d0: 406e 63be 0000 0080 0000 0000 9f82 f1bf
000003e0: 0000 0080 0000 0000 0000 0080 87a8 6bbf
000003f0: 8f57 8abf 0000 0080 61bd 083f 0000 0000

intercepts f4 [1, 200]
-0.021987319 -0.001888401 -0.13747402 -0.81450516 -1.5607034 0.58690923 -0.075753614 -0.122075856
0.14370409 -0.0034061181 -0.19419879 0.8392296 0.90645957 -0.13569167 0.9560508 -0.5950263
-0.021863578 -0.0049247406 0.16335073 0.40097004 -0.011616658 0.014788537 -0.021605367 -0.012808726
-0.1892774 -0.075051315 -1.6301166 -0.072340876 0.6688786 -0.06678625 -0.008324541 -0.00050778413
0.2440295 0.38566908 -0.004078903 -0.03422429 -0.014643445 -0.002127648 -1.0861624 -0.100566946
-0.028912526 0.5538621 -0.032884188 -0.12625228 0.101958536 -0.0059339087 -0.058031783 1.5849973
-0.018242242 -0.09886624 -0.12263967 -0.45156625 -0.112839386 -0.015704889 -0.52154243 -0.08183708
-0.11881923 -0.00040612926 -0.023704017 -0.06161331 0.79442793 -1.8329573 -0.007858946 -0.011641618
-0.11569655 -0.7059955 -0.022160629 -0.0031254326 -0.046624895 -0.039675534 -0.09648927 0.008700824
-1.0157248 -0.05640474 0.30350322 -0.12178429 -0.06418241 -0.14363281 -0.012523273 -0.362229
-0.013493285 1.1345806 0.4279183 -0.064609975 0.7837872 0.10410865 -0.114732444 -0.0026529948
0.15288636 0.66958624 0.8781299 -0.026711224 -0.059020583 0.104768135 -0.03497745 0.058537234
-0.030570954 -0.14653994 -0.0001301055 1.1821163 -0.011139731 -0.13039316 0.89886683 -0.010839122
-0.05836965 -0.07646871 0.062359616 -0.04975661 -0.06430473 -0.0066369222 -0.033522923 -0.02976913
-0.002270113 -0.008544121 -0.26726085 -0.028838497 0.06851192 -0.059410818 -0.05669416 -0.15177357
-0.09580252 0.81335187 -0.08562774 0.42398998 -0.26302555 -0.14381576 -0.0064947847 -1.4354911
0.2923406 -0.11884738 -1.8487175 -0.0014178228 -0.10762827 -0.024701297 -1.8458095 -0.26393968
-0.13979226 -0.08349626 -1.7902875 -0.08857913 -0.007951158 0.30812737 -0.10000727 -0.14191511
-0.0029350007 0.7255447 -0.07364952 -0.21459587 1.6167595 -0.12890154 -0.41445473 -0.0015048108
-0.0037812993 -0.13202605 -0.031007258 -0.015657863 0.66231555 -0.0033933248 -0.002661563 0.4473698
-0.50705695 0.5931527 -0.58149296 -0.21039635 -0.19790484 -0.57443976 -0.12916061 -0.005139915
0.2383992 0.5497611 1.3076401 0.3890015 -0.13253264 -0.0031174482 -0.115282625 -0.6136997
0.8524525 -0.036562223 -0.016473487 -0.11242555 -0.074878916 -0.10749309 1.0784957 0.5736025
-0.092617445 -0.08373007 -0.021711024 1.0502287 -0.0028389415 1.8334072 0.45132375 1.1022711
1.3450094 -0.024470555 -0.087844476 0.74498975 0.4058139 0.78598356 -0.037945583 -0.051205505
00000000: c01e b4bc 3984 f7ba fdc5 0cbe 6983 50bf
00000010: 21c5 c7bf af3f 163f b624 9bbd e802 fabd
00000020: 2a27 133e 2e39 5fbb 0cdc 46be c0d7 563f
00000030: bc0d 683f c2f2 0abe bfbf 743f a553 18bf
00000040: 3f1b b3bc b85f a1bb 6a45 273e f24b cd3e
00000050: cc53 3ebc 9f4b 723c bdfd b0bc b1db 51bc
00000060: efd1 41be 81b4 99bd a9a7 d0bf 7427 94bd
00000070: a13b 2b3f 3bc7 88bd a863 08bc d11c 05ba
00000080: dfe2 793e 6b76 c53e 51a8 85bb c52e 0cbd
00000090: 0feb 6fbc 0370 0bbb 5f07 8bbf 0bf6 cdbd
000000a0: f6d9 ecbc e8c9 0d3f 92b1 06bd 4748 01be
000000b0: a3cf d03d 3c71 c2bb bcb2 6dbd 31e1 ca3f
000000c0: c170 95bc 627a cabd 822a fbbd b133 e7be
000000d0: 5618 e7bd 8aa7 80bc ce83 05bf 339a a7bd
000000e0: 7f57 f3bd bfed d4b9 ed2e c2bc 3d5e 7cbd
000000f0: a15f 4b3f 589e eabf cfc2 00bc 7cbc 3ebc
00000100: 50f2 ecbd 1fbc 34bf 358a b5bc 0fd4 4cbb
00000110: bff9 3ebd d082 22bd 2b9c c5bd e78d 0e3c
00000120: 4503 82bf a808 67bd c664 9b3e 0b6a f9bd
00000130: 1172 83bd 7b14 13be 6a2e 4dbc 1476 b9be
00000140: f012 5dbc f039 913f 1b18 db3e 3c52 84bd
00000150: 47a6 483f ea36 d53d d8f8 eabd dedd 2dbb
00000160: 3e8e 1c3e 016a 2b3f 1fcd 603f 7fd1 dabc
00000170: 91bf 71bd ad90 d63d 8444 0fbd bdc4 6f3d
00000180: f06f fabc 910e 16be ee6c 08b9 964f 973f
00000190: 6b83 36bc c985 05be 231c 663f 9396 31bc
000001a0: 0415 6fbd a19b 9cbd cc6c 7f3d 96cd 4bbd
000001b0: 33b2 83bd 8a7a d9bb 554f 09bd 64de f3bc
000001c0: 2dc6 14bb a4fc 0bbc 6ad6 88be b63e ecbc
000001d0: fa4f 8c3d c258 73bd 2338 68bd 886a 1bbe
000001e0: 1d34 c4bd d437 503f 995d afbd 3715 d93e
000001f0: 49ab 86be 7044 13be 34d2 d4bb 2cbe b7bf
00000200: abad 953e 4166 f3bd c6a2 ecbf 3dd6 b9ba
00000210: 366c dcbd 605a cabc 7c43 ecbf 1a23 87be
00000220: b425 0fbe 1600 abbd 2428 e5bf fa68 b5bd
00000230: 9345 02bc dfc2 9d3e 9dd0 ccbd 3252 11be
00000240: 2459 40bb 4cbd 393f 8fd5 96bd 05bf 5bbe
00000250: faf1 ce3f c4fe 03be 6933 d4be 123d c5ba
00000260: adcf 77bb d631 07be ef02 febc eb44 80bc
00000270: 838d 293f 8b62 5ebb 9e6d 2ebb a80d e53e
00000280: 7cce 01bf dbd8 173f b9dc 14bf 2472 57be
00000290: 91a7 4abe 7c0e 13bf ae42 04be bb6c a8bb
000002a0: eb1e 743e 25bd 0c3f c060 a73f 342b c73e
000002b0: a3b6 07be 1a4e 4cbb 4c19 ecbd 6c1b 1dbf
000002c0: 543a 5a3f 45c2 15bd 68f3 86bc 5e3f e6bd
000002d0: 1e5a 99bd 5625 dcbd 260c 8a3f 9dd7 123f
000002e0: 37ae bdbd ac7a abbd 51db b1bc e56d 863f
000002f0: 890d 3abb 16ad ea3f e813 e73e 3817 8d3f
00000300: 4529 ac3f 7976 c8bc cee7 b3bd a6b7 3e3f
00000310: d7c6 cf3e 3836 493f d46c 1bbd ddbc 51bd

coefficient1 f4 [200, 150]
-0.0 0.0 -0.0 -0.0 0.0 0.0 0.0 0.0
0.0 -0.0 0.0 -0.0 0.0 0.0 -0.0 -0.0
0.0 -0.0 -0.0 0.0 0.0 0.0 0.0 0.0
0.0 -0.0 -0.0 -0.0 -0.0 0.0 -0.0 0.0
0.0 -0.0 -0.0 0.0 0.0 0.0 -0.0 -0.0
0.0 0.0 -0.0 -0.0 -0.0 -0.0 -0.0 -0.0
-0.0 -0.0 0.0 0.0 -0.0 -0.0 -0.0 0.0
-0.0 -0.0 -0.0 -0.0 -0.0 0.0 0.0 -0.0
-0.0 -0.0 -0.0 -0.0 0.0 0.0 -0.0 -0.0
0.0 0.0 -0.0 -0.0 0.0 -0.0 0.0 0.0
0.0 -0.0 -0.0 -0.0 -0.0 -0.0 -0.0 0.0
-0.0 0.0 0.0 -0.0 0.0 0.0 0.0 0.0
-0.0 -0.0 -0.0 -0.0 0.0 -0.0 -0.0 0.0
-0.0 0.0 0.0 -0.0 -0.0 -0.0 -0.0 0.0
0.0 0.0 -0.0 -0.0 -0.0 0.0 0.0 0.0
0.0 -0.0 -0.0 0.0 -0.0 -0.0 0.0 -0.0
-0.0 -0.0 -0.0 -0.0 -0.0 0.0 -0.0 0.0
0.0 -0.0 0.0 -0.0 0.0 -0.0 -0.0 0.0
-0.0 0.0 0.0 -0.0 0.0 0.0 0.0 0.0
-0.0 -0.0 -0.0 -0.0 -0.0 -0.0 0.0 -0.0
0.0 -0.0 0.0 0.0 -0.0 -0.0 -0.0 0.0
-0.0 0.0 0.0 0.0 0.0 0.0 0.0 0.0
0.0 0.0 -0.0 -0.0 -0.0 0.0 -0.0 0.0
0.0 0.0 0.0 -0.0 -0.0 0.0 0.0 -0.0
0.0 -0.0 -0.0 -0.0 0.0 -0.0 0.0 -0.0
0.0 0.0 0.0 -0.0 0.0 -0.0 -0.0 0.0
0.0 -0.0 0.0 -0.0 0.0 -0.0 -0.0 -0.0
-0.0 0.0 -0.0 0.0 -0.0 -0.0 0.0 -0.0
-0.0 0.0 -0.0 -0.0 0.0 0.0 -0.0 0.0
-0.0 0.0 0.0 -0.0 0.0 0.0 -0.0 0.0
0.0 -0.0 -0.0 0.0 0.0 0.0 0.0 -0.0
0.0 -0.0 0.0 -0.0 0.0 -0.0 -0.0 0.0
00000000: 0000 0080 0000 0000 0000 0080 0000 0080
00000010: 0000 0000 0000 0000 0000 0000 0000 0000
00000020: 0000 0000 0000 0080 0000 0000 0000 0080
00000030: 0000 0000 0000 0000 0000 0080 0000 0080
00000040: 0000 0000 0000 0080 0000 0080 0000 0000
00000050: 0000 0000 0000 0000 0000 0000 0000 0000
00000060: 0000 0000 0000 0080 0000 0080 0000 0080
00000070: 0000 0080 0000 0000 0000 0080 0000 0000
00000080: 0000 0000 0000 0080 0000 0080 0000 0000
00000090: 0000 0000 0000 0000 0000 0080 0000 0080
000000a0: 0000 0000 0000 0000 0000 0080 0000 0080
000000b0: 0000 0080 0000 0080 0000 0080 0000 0080
000000c0: 0000 0080 0000 0080 0000 0000 0000 0000
000000d0: 0000 0080 0000 0080 0000 0080 0000 0000
000000e0: 0000 0080 0000 0080 0000 0080 0000 0080
000000f0: 0000 0080 0000 0000 0000 0000 0000 0080
00000100: 0000 0080 0000 0080 0000 0080 0000 0080
00000110: 0000 0000 0000 0000 0000 0080 0000 0080
00000120: 0000 0000 0000 0000 0000 0080 0000 0080
00000130: 0000 0000 0000 0080 0000 0000 0000 0000
00000140: 0000 0000 0000 0080 0000 0080 0000 0080
00000150: 0000 0080 0000 0080 0000 0080 0000 0000
00000160: 0000 0080 0000 0000 0000 0000 0000 0080
00000170: 0000 0000 0000 0000 0000 0000 0000 0000
00000180: 0000 0080 0000 0080 0000 0080 0000 0080
00000190: 0000 0000 0000 0080 0000 0080 0000 0000
000001a0: 0000 0080 0000 0000 0000 0000 0000 0080
000001b0: 0000 0080 0000 0080 0000 0080 0000 0000
000001c0: 0000 0000 0000 0000 0000 0080 0000 0080
000001d0: 0000 0080 0000 0000 0000 0000 0000 0000
000001e0: 0000 0000 0000 0080 0000 0080 0000 0000
000001f0: 0000 0080 0000 0080 0000 0000 0000 0080
00000200: 0000 0080 0000 0080 0000 0080 0000 0080
00000210: 0000 0080 0000 0000 0000 0080 0000 0000
00000220: 0000 0000 0000 0080 0000 0000 0000 0080
00000230: 0000 0000 0000 0080 0000 0080 0000 0000
00000240: 0000 0080 0000 0000 0000 0000 0000 0080
00000250: 0000 0000 0000 0000 0000 0000 0000 0000
00000260: 0000 0080 0000 0080 0000 0080 0000 0080
00000270: 0000 0080 0000 0080 0000 0000 0000 0080
00000280: 0000 0000 0000 0080 0000 0000 0000 0000
00000290: 0000 0080 0000 0080 0000 0080 0000 0000
000002a0: 0000 0080 0000 0000 0000 0000 0000 0000
000002b0: 0000 0000 0000 0000 0000 0000 0000 0000
000002c0: 0000 0000 0000 0000 0000 0080 0000 0080
000002d0: 0000 0080 0000 0000 0000 0080 0000 0000
000002e0: 0000 0000 0000 0000 0000 0000 0000 0080
000002f0: 0000 0080 0000 0000 0000 0000 0000 0080
00000300: 0000 0000 0000 0080 0000 0080 0000 0080
00000310: 0000 0000 0000 0080 0000 0000 0000 0080
00000320: 0000 0000 0000 0000 0000 0000 0000 0080
00000330: 0000 0000 0000 0080 0000 0080 0000 0000
00000340: 0000 0000 0000 0080 0000 0000 0000 0080
00000350: 0000 0000 0000 0080 0000 0080 0000 0080
00000360: 0000 0080 0000 0000 0000 0080 0000 0000
00000370: 0000 0080 0000 0080 0000 0000 0000 0080
00000380: 0000 0080 0000 0000 0000 0080 0000 0080
00000390: 0000 0000 0000 0000 0000 0080 0000 0000
000003a0: 0000 0080 0000 0000 0000 0000 0000 0080
000003b0: 0000 0000 0000 0000 0000 0080 0000 0000
000003c0: 0000 0000 0000 0080 0000 0080 0000 0000
000003d0: 0000 0000 0000 0000 0000 0000 0000 0080
000003e0: 0000 0000 0000 0080 0000 0000 0000 0080
000003f0: 0000 0000 0000 0080 0000 0080 0000 0000

intercepts1 f4 [1, 150]
-0.032022893 -0.106578104 0.44187585 -0.081790484 -0.79392415 -0.35295132 0.47191045 -0.4169874
-0.016094048 -0.07589736 0.29934433 -0.25876456 -0.084416576 -0.7894791 0.11856926 -0.005041643
-0.08363203 -0.017757574 -0.87363005 0.30699754 0.50760674 -0.69084746 -0.04614456 0.10680847
0.49624467 0.70813864 -0.022630796 -0.39201504 0.1938756 -0.79938096 -0.022325907 -0.31141326
-0.016712774 -0.47961235 0.68753767 -0.919432 0.19436662 -0.06345905 0.0492006 -1.8391101
0.59266096 -0.18535061 -0.032366615 -0.123035885 -0.022445906 -0.117138594 0.6254375 -0.09194319
-0.1086074 -0.15775687 0.6175941 -0.056913015 -0.07487505 -0.10589603 0.23738174 -0.082442895
-0.100730255 1.1615566 -0.1141603 -0.017623218 -0.09437455 -0.053375825 -0.11459003 -0.4179965
-1.3327218 -0.10938963 -0.05342968 0.19812526 0.66411346 -0.11018116 -0.9977127 0.42907655
-0.042263344 -0.089254685 -0.035939656 0.85363865 -0.30225664 -0.26898545 -0.12267503 0.25158972
-0.40490657 -0.10140832 -0.059238717 0.27316147 -0.11498415 -0.7081223 -0.25304332 -0.012807113
-0.008838148 -0.46914017 0.73904765 -1.3035389 0.6214773 -0.09319623 -0.10028872 -0.059438203
-0.08601273 -0.8768994 -0.068498485 -0.074094385 -0.1415759 0.28757256 0.6079508 -0.3454927
0.03211311 -0.006103268 0.62743026 -0.0610279 -0.18121846 -0.084439754 -1.3026317 -0.004173382
0.4716725 0.06371381 -0.6974698 -0.12266363 -1.9497222 -1.1698021 1.2834488 -0.061399277
-0.14373799 0.8054016 -0.09416833 -0.76357234 0.9486701 -0.3952671 -0.04122605 0.7539521
-0.14666738 -0.0976583 -0.11070582 -0.14794578 -0.08724218 -0.018999029 -0.0030118623 -0.09218948
-1.198853 0.07115517 0.7751768 -1.0430583 0.13119066 0.38304564 0.6936907 -0.13271521
0.6752952 1.0133275 0.21754554 -0.0038740123 -0.08182866 -0.10469713
00000000: 702a 03bd 9f45 dabd 8d3d e23e c581 a7bd
00000010: 9d3e 4bbf 09b6 b4be 3f9e f13e 5f7f d5be
00000020: aad7 83bc 1370 9bbd a943 993e ca7c 84be
00000030: 99e2 acbd 4d1b 4abf 71d4 f23d 5e34 a5bb
00000040: 4547 abbd 5578 91bc 38a6 5fbf c82e 9d3e
00000050: 84f2 013f 61db 30bf 1402 3dbd 66be da3d
00000060: c813 fe3e 9348 353f 3864 b9bc 32b6 c8be
00000070: 5387 463e 3ba4 4cbf d2e4 b6bc 8f71 9fbe
00000080: 3ae9 88bc c08f f5be 7802 303f e55f 6bbf
00000090: 0b08 473e d2f6 81bd 9186 493d f667 ebbf
000000a0: a1b8 173f 8dcc 3dbe db92 04bd 3dfa fbbd
000000b0: 7ae0 b7bc 5ce6 efbd ac1c 203f b64c bcbd
000000c0: 8e6d debd 048b 21be a61a 1e3f 9f1d 69bd
000000d0: 1758 99bd 05e0 d8bd 3314 733e d2d7 a8bd
000000e0: aa4b cebd e3ad 943f e0cc e9bd 915e 90bc
000000f0: 7247 c1bd 9ca0 5abd 2dae eabd a303 d6be
00000100: a196 aabf ac07 e0bd 15d9 5abd 59e1 4a3e
00000110: 5703 2a3f a9a6 e1bd 196a 7fbf ecaf db3e
00000120: 541c 2dbd 29cb b6bd 7635 13bd 1088 5a3f
00000130: 62c1 9abe 76b8 89be 0c3d fbbd 5ed0 803e
00000140: ea4f cfbe 2aaf cfbd 4ca4 72bd d2db 8b3e
00000150: cf7c ebbd 8147 35bf e58e 81be edd4 51bc
00000160: e1cd 10bc 2433 f0be 3a32 3d3f 5dda a6bf
00000170: 2319 1f3f aadd bebd 2c64 cdbd 7975 73bd
00000180: 7127 b0bd 7b7c 60bf ef48 8cbd ccbe 97bd
00000190: 46f9 10be b63c 933e aaa2 1b3f 6be4 b0be
000001a0: 0989 033d ecfd c7bb 459f 203f 64f8 79bd
000001b0: 5591 39be c0ee acbd a3bc a6bf dec0 88bb
000001c0: 0f7f f13e 637c 823d 618d 32bf 1237 fbbd
000001d0: 7f90 f9bf 13bc 95bf 0d48 a43f cf7d 7bbd
000001e0: 0d30 13be cd2e 4e3f 53db c0bd 7a79 43bf
000001f0: 0bdc 723f 7360 cabe a6dc 28bd 0103 413f
00000200: f92f 16be 1301 c8bd bcb9 e2bd 197f 17be
00000210: 07ac b2bd daa3 9bbc aa62 45bb d7cd bcbd
00000220: 0474 99bf cdb9 913d fd71 463f ef82 85bf
00000230: d856 063e 8f1e c43e b795 313f 7fe6 07be
00000240: 25e0 2c3f b7b4 813f 42c4 5e3e 24e3 7dbb
00000250: c995 a7bd 736b d6bd

coefficient2 f4 [150, 100]
-0.0 0.0 0.0 -0.0 0.0 -0.0 -0.0 0.0
-0.0 -0.0 -0.0 -0.0 -0.0 -0.0 -0.0 -0.0
-0.0 -0.0 -0.0 -0.0 -0.0 -0.0 0.0 -0.0
-0.0 -0.0 -0.0 0.0 -0.0 0.0 0.0 0.0
0.0 0.0 0.0 0.0 -0.0 -0.0 -0.0 0.0
0.0 -0.0 -0.0 -0.0 0.0 0.0 -0.0 -0.0
0.0 0.0 0.0 0.0 0.0 -0.0 0.0 -0.0
-0.0 0.0 0.0 -0.0 0.0 -0.0 -0.0 -0.0
-0.0 -0.0 0.0 -0.0 0.0 -0.0 -0.0 0.0
-0.0 0.0 -0.0 -0.0 0.0 0.0 0.0 -0.0
0.0 -0.0 -0.0 -0.0 -0.0 -0.0 0.0 0.0
-0.0 0.0 -0.0 -0.0 -0.0 -0.0 -0.0 0.0
-0.0 -0.0 0.0 -0.0 -0.0 0.0 -0.0 0.0
0.0 0.0 0.0 -0.0 -0.0 -0.0 0.0 0.0
0.0 0.0 0.0 -0.0 0.0 -0.0 -0.0 -0.0
-0.0 -0.0 -0.0 -0.0 0.0 -0.0 -0.0 0.0
-0.0 0.0 -0.0 -0.0 0.0 -0.0 -0.0 -0.0
-0.0 0.0 -0.0 0.0 0.0 0.0 -0.0 0.0
-0.0 -0.0 0.0 -0.0 0.0 0.0 -0.0 -0.0
-0.0 0.0 -0.0 -0.0 -0.0 0.0 -0.0 -0.0
0.0 0.0 0.0 0.0 -0.0 -0.0 -0.0 -0.0
0.0 -0.0 -0.0 0.0 0.0 0.0 0.0 0.0
-0.0 0.0 0.0 0.0 0.0 0.0 0.0 -0.0
-0.0 0.0 -0.0 0.0 -0.0 0.0 0.0 -0.0
-0.0 -0.0 -0.0 0.0 0.0 0.0 -0.0 -0.0
-0.027790498 0.32309568 -0.0 0.0 0.0 -0.21095021 -0.4638646 0.33834043
-0.8518953 -0.38098475 -0.0 -0.18561344 0.8148789 -0.116907515 0.0 0.0
-0.0 -0.48843712 -0.5194166 -0.41152 0.4774981 -0.25208372 -0.10103113 0.41993555
0.7848175 0.0 0.0 -0.6342008 -0.0 -0.41606942 -0.08463057 -0.0
-0.30532804 0.012040104 0.0 -0.33474392 0.1806022 0.20151246 -0.4030966 -0.0
-0.0 -0.0027377566 0.44702578 -0.3262469 0.0 0.0 -0.48415557 0.66607845
-0.1805142 -1.2209262 0.36161482 0.0 0.19475225 0.04590154 -0.6572431 -0.44968596
00000000: 0000 0080 0000 0000 0000 0000 0000 0080
00000010: 0000 0000 0000 0080 0000 0080 0000 0000
00000020: 0000 0080 0000 0080 0000 0080 0000 0080
00000030: 0000 0080 0000 0080 0000 0080 0000 0080
00000040: 0000 0080 0000 0080 0000 0080 0000 0080
00000050: 0000 0080 0000 0080 0000 0000 0000 0080
00000060: 0000 0080 0000 0080 0000 0080 0000 0000
00000070: 0000 0080 0000 0000 0000 0000 0000 0000
00000080: 0000 0000 0000 0000 0000 0000 0000 0000
00000090: 0000 0080 0000 0080 0000 0080 0000 0000
000000a0: 0000 0000 0000 0080 0000 0080 0000 0080
000000b0: 0000 0000 0000 0000 0000 0080 0000 0080
000000c0: 0000 0000 0000 0000 0000 0000 0000 0000
000000d0: 0000 0000 0000 0080 0000 0000 0000 0080
000000e0: 0000 0080 0000 0000 0000 0000 0000 0080
000000f0: 0000 0000 0000 0080 0000 0080 0000 0080
00000100: 0000 0080 0000 0080 0000 0000 0000 0080
00000110: 0000 0000 0000 0080 0000 0080 0000 0000
00000120: 0000 0080 0000 0000 0000 0080 0000 0080
00000130: 0000 0000 0000 0000 0000 0000 0000 0080
00000140: 0000 0000 0000 0080 0000 0080 0000 0080
00000150: 0000 0080 0000 0080 0000 0000 0000 0000
00000160: 0000 0080 0000 0000 0000 0080 0000 0080
00000170: 0000 0080 0000 0080 0000 0080 0000 0000
00000180: 0000 0080 0000 0080 0000 0000 0000 0080
00000190: 0000 0080 0000 0000 0000 0080 0000 0000
000001a0: 0000 0000 0000 0000 0000 0000 0000 0080
000001b0: 0000 0080 0000 0080 0000 0000 0000 0000
000001c0: 0000 0000 0000 0000 0000 0000 0000 0080
000001d0: 0000 0000 0000 0080 0000 0080 0000 0080
000001e0: 0000 0080 0000 0080 0000 0080 0000 0080
000001f0: 0000 0000 0000 0080 0000 0080 0000 0000
00000200: 0000 0080 0000 0000 0000 0080 0000 0080
00000210: 0000 0000 0000 0080 0000 0080 0000 0080
00000220: 0000 0080 0000 0000 0000 0080 0000 0000
00000230: 0000 0000 0000 0000 0000 0080 0000 0000
00000240: 0000 0080 0000 0080 0000 0000 0000 0080
00000250: 0000 0000 0000 0000 0000 0080 0000 0080
00000260: 0000 0080 0000 0000 0000 0080 0000 0080
00000270: 0000 0080 0000 0000 0000 0080 0000 0080
00000280: 0000 0000 0000 0000 0000 0000 0000 0000
00000290: 0000 0080 0000 0080 0000 0080 0000 0080
000002a0: 0000 0000 0000 0080 0000 0080 0000 0000
000002b0: 0000 0000 0000 0000 0000 0000 0000 0000
000002c0: 0000 0080 0000 0000 0000 0000 0000 0000
000002d0: 0000 0000 0000 0000 0000 0000 0000 0080
000002e0: 0000 0080 0000 0000 0000 0080 0000 0000
000002f0: 0000 0080 0000 0000 0000 0000 0000 0080
00000300: 0000 0080 0000 0080 0000 0080 0000 0000
00000310: 0000 0000 0000 0000 0000 0080 0000 0080
00000320: e6a8 e3bc cc6c a53e 0000 0080 0000 0000
00000330: 0000 0000 5503 58be a97f edbe f53a ad3e
00000340: cf15 5abf 6f10 c3be 0000 0080 7311 3ebe
00000350: e79b 503f 356d efbd 0000 0000 0000 0000
00000360: 0000 0080 6e14 fabe 7cf8 04bf c0b2 d2be
00000370: a27a f43e 1e11 81be 69e9 cebd cb01 d73e
00000380: cde9 483f 0000 0000 0000 0000 fc5a 22bf
00000390: 0000 0080 0d07 d5be cb52 adbd 0000 0080
000003a0: f553 9cbe db43 453c 0000 0000 8e63 abbe
000003b0: c8ef 383e 4859 4e3e ad62 cebe 0000 0080
000003c0: 0000 0080 ef6b 33bb 90e0 e43e d509 a7be
000003d0: 0000 0000 0000 0000 3de3 f7be 1e84 2a3f
000003e0: b7d8 38be 4f47 9cbf 9425 b93e 0000 0000
000003f0: 226d 473e 4103 3c3d 1541 28bf 3d3d e6be

intercepts2 f4 [1, 100]
0.29872465 0.030245656 -0.117265 -0.115572155 -0.09117061 0.47271588 -0.3622229 0.4292537
-0.95818025 0.29708263 -0.090752155 -0.5985348 0.23741274 0.28209165 -0.021475026 -0.04681784
-0.04521908 -0.05511522 -0.14297724 -0.31539455 0.12754612 0.22599496 0.50191134 -0.33777314
0.7622136 -0.10971226 -0.007965601 0.29710537 -0.062092416 0.46223387 0.39943534 -0.12029336
0.49853024 0.016628651 -0.08280921 0.06320561 0.25956222 0.39510247 -0.3712833 -0.03348198
-0.25529137 -0.10715423 0.39525405 0.59649384 -0.095647186 -0.07290758 0.3496423 0.3081337
0.024240168 -0.16689657 0.8454122 -0.046256125 0.10702441 0.57432044 -0.025473444 -0.15364061
-0.04650254 0.71647125 -0.011188171 0.48883837 0.044616684 -0.21747847 0.5640097 0.16467385
-0.21722387 -0.13512628 -0.016375285 -0.11778653 -0.12752014 -0.35759306 0.3184457 0.43302897
-1.1318918 0.21584357 0.46228248 0.73839915 -0.9714804 -0.08825418 -0.11169442 -0.018806534
0.2420851 -0.3267671 -0.062452767 0.3999992 0.69687974 -0.06345007 0.6385397 0.83334064
0.41279376 -0.052910987 -0.44765064 0.3121928 -0.039102275 0.0129095195 0.03437261 0.3006268
-0.13942687 -0.0108789755 -0.025719633 -0.07201478
00000000: 70f2 983e bdc5 f73c a228 f0bd 18b1 ecbd
00000010: a8b7 babd d107 f23e 4875 b9be 24c7 db3e
00000020: 4d4b 75bf 371b 983e 44dc b9bd 9439 19bf
00000030: 531c 733e 516e 903e 65ec afbc 10c4 3fbd
00000040: a437 39bd 7fc0 61bd a068 12be 657b a1be
00000050: 739b 023e 396b 673e 437d 003f 9af0 acbe
00000060: 6e20 433f d2b0 e0bd 2782 02bc 321e 983e
00000070: 9e54 7ebd eba9 ec3e ca82 cc3e 5d5c f6bd
00000080: 5b3f ff3e cf38 883c e097 a9bd f171 813d
00000090: 57e5 843e df4a ca3e d818 bebe 6724 09bd
000000a0: 8db5 82be ad73 dbbd bd5e ca3e d2b3 183f
000000b0: ace2 c3bd 9250 95bd 5104 b33e b3c3 9d3e
000000c0: 5193 c63c efe6 2abe ef6c 583f 1077 3dbd
000000d0: 9d2f db3d aa06 133f afad d0bc f753 1dbe
000000e0: 7379 3ebd a96a 373f 974e 37bc 0649 fa3e
000000f0: fcbf 363d adb2 5ebe f162 103f 43a0 283e
00000100: ef6f 5ebe 8b5e 0abe 7625 86bc 103a f1bd
00000110: a494 02be 7016 b7be 510b a33e f9b5 dd3e
00000120: d5e1 90bf 1906 5d3e 4ab0 ec3e ba07 3d3f
00000130: f1b2 78bf 9cbe b4bd 0bc0 e4bd 2910 9abc
00000140: 28e5 773e 044e a7be 79ce 7fbd b2cc cc3e
00000150: b666 323f 1cf2 81bd 5677 233f d055 553f
00000160: b459 d33e 31b9 58bd 7732 e5be bcd7 9f3e
00000170: b529 20bd 7382 533c 4bca 0c3d c2eb 993e
00000180: ebc5 0ebe bb3d 32bc fbb1 d2bc 7c7c 93bd

coefficient3 f4 [100, 1]
-1.0321972 -0.61726385 -0.0 0.0 0.0 1.0829715 0.4477653 1.5136043
-1.628534 0.52386147 -0.0 1.8820794 -0.73039913 0.30621663 -0.0 0.0
-0.0 -1.3177212 0.35972053 0.74484307 0.67710674 0.40244874 -0.19760837 1.2374002
2.314744 -0.0 0.0 -0.684213 -0.0 -0.78592277 -0.67281353 0.0
-0.659602 1.7492864 0.0 -0.39650103 -1.3921434 -0.5036893 0.42554018 0.0
0.0 0.0062377807 0.425195 -0.74262965 -0.0 -0.0 0.78149503 -1.4822255
-0.9276943 2.1875541 -0.7857209 0.0 -0.38726422 -2.6294565 -0.5359828 1.0175618
1.1066998 -1.1027637 0.0 -0.8900605 -0.71531874 1.9338337 -1.4194924 -2.1163173
-0.0 -0.0 -0.0 -0.0 -0.0 0.9704025 0.849381 -1.0326457
-1.166231 -1.6688119 -0.5063022 -0.8782158 -2.4502168 0.0 0.0 0.0
-0.40854964 1.1816821 -1.6992577 0.47594354 1.240505 0.84330916 0.54208624 -0.63581747
0.002146885 -0.0 1.0659611 -0.726142 -0.0 1.2991472 1.082572 -1.8837935
0.0 -1.0835172 -0.0 0.0
00000000: 0a1f 84bf 0105 1ebf 0000 0080 0000 0000
00000010: 0000 0000 cf9e 8a3f 7e41 e53e c9bd c13f
00000020: cd73 d0bf c91b 063f 0000 0080 fae7 f03f
00000030: 70fb 3abf 6dc8 9c3e 0000 0080 0000 0000
00000040: 0000 0080 17ab a8bf 4a2d b83e 09ae 3e3f
00000050: de56 2d3f c30d ce3e d959 4abe 2163 9e3f
00000060: c424 1440 0000 0080 0000 0000 9528 2fbf
00000070: 0000 0080 3c32 49bf 823d 2cbf 0000 0000
00000080: addb 28bf 9ee8 df3f 0000 0000 2f02 cbbe
00000090: c131 b2bf c8f1 00bf 67e0 d93e 0000 0000
000000a0: 0000 0000 4c66 cc3b 29b3 d93e fa1c 3ebf
000000b0: 0000 0080 0000 0080 0f10 483f 91b9 bdbf
000000c0: 607d 6dbf e300 0c40 0125 49bf 0000 0000
000000d0: 7f47 c6be 0449 28c0 2b36 09bf 773f 823f
000000e0: 57a8 8d3f 5c27 8dbf 0000 0000 01db 63bf
000000f0: 211f 37bf dd87 f73f edb1 b5bf be71 07c0
00000100: 0000 0080 0000 0080 0000 0080 0000 0080
00000110: 0000 0080 4c6c 783f 0971 593f bc2d 84bf
00000120: 0f47 95bf a19b d5bf 059d 01bf c0d2 60bf
00000130: 5ad0 1cc0 0000 0000 0000 0000 0000 0000
00000140: 6b2d d1be 5c41 973f 4781 d9bf dfae f33e
00000150: dec8 9e3f 1ce3 573f 2ac6 0a3f efc4 22bf
00000160: c1b2 0c3b 0000 0080 6a71 883f 71e4 39bf
00000170: 0000 0080 754a a63f b891 8a3f 2520 f1bf
00000180: 0000 0000 b1b0 8abf 0000 0080 0000 0000
