app/src/main/res/raw/mobile_classifier_apple_kiwi_blueberry.onnx (onnx, 238410 bytes, 7 tensors)

coefficient f4 [68, 200]
0.0882853 -0.04926502 -0.08805424 -0.58694685 -0.55846447 0.3571402 -0.0037073817 0.51376563
-0.43731117 1.1179079e-36 -0.28524518 -0.25538516 0.0152159855 -0.019821001 0.32033905 0.23289867
1.3122408e-36 -0.31034154 0.33352873 4.1999368e-17 -0.30164018 8.79486e-37 0.12597159 -7.4735834e-37
-0.51094496 0.47677007 -0.19058901 -0.37962896 -0.024653833 0.29669577 5.0360697e-08 0.37128654
-4.50344e-37 -1.0487239e-36 -0.1413874 -0.009175281 -0.38091367 0.4458053 -0.0875968 -0.04378225
2.6098218e-37 -0.28926778 2.3567336e-37 -5.1753235e-37 0.25617525 0.43724865 0.12679781 0.049678035
0.115572535 -0.6597454 0.09075405 -0.022595212 -0.262304 -1.2760913e-36 -0.4088748 0.099526495
-6.9598396e-37 -7.2300283e-37 0.30877802 -0.43454412 -3.098857e-37 -0.1919826 -0.052962914 -0.0009789048
0.047028236 -0.03637738 -0.27671355 0.6410017 3.907792e-38 1.190077e-37 0.4333584 -0.120775096
0.039008718 -4.7304272e-07 -0.07009644 -0.351092 0.06781476 0.4401263 0.16096328 0.15925547
-5.315506e-37 0.1447291 0.027842393 -0.018582651 0.1608027 -0.066706695 0.16640185 0.46732512
-0.4148823 5.9213976e-37 -0.11197863 3.8154115e-37 4.291469e-37 -0.39537776 0.17229013 -0.032557305
-0.091548264 -2.5775249e-38 -5.730225e-37 3.3398299e-37 -5.4967006e-37 -0.00023408074 -7.040685e-37 0.15487875
-0.0062311133 -0.4502784 -0.25036225 0.04545523 -1.0602288e-07 0.0666688 9.683137e-37 0.6779947
-0.0889617 9.377629e-37 0.016056975 -0.2777089 -0.114147805 -0.06252995 -0.0019875441 -0.41382882
-0.038270317 0.43224525 0.07752573 -0.041525368 -0.31274524 0.6076794 -4.9447426e-05 0.16520183
0.39595526 -0.020197323 7.2144746e-37 -0.2546097 -0.47241196 -6.012314e-37 -0.355798 0.005318583
0.20880103 0.0657511 1.2598154e-36 -7.179921e-37 -0.69116735 0.12971258 0.59114504 -0.010337122
0.13148916 -0.3251937 -6.560037e-37 0.17947057 4.7306697e-37 5.1801964e-37 -0.26122412 -0.024345784
5.018624e-37 -0.4027065 -0.0025730021 -0.02842566 1.0873603e-06 -7.994594e-37 -7.348082e-37 0.025877168
-2.6370493e-37 0.67143315 1.2923101e-36 0.002146557 1.1196404e-10 -0.20860085 -0.41323546 0.019290185
-0.043450594 3.159547e-39 -0.6027551 0.5449446 -0.64695936 -0.46003905 -0.050000474 0.07776643
0.25929672 2.6528813e-37 -0.10846332 -8.980395e-12 -0.044407647 0.26451373 -0.05094328 -0.34728828
0.3537905 -0.003800522 1.2877711e-36 -0.5191381 0.0060308194 0.4092636 0.2012176 4.1956845e-37
-5.1526695e-05 -0.6250679 0.14918691 -0.61776274 0.60637677 3.422629e-38 -0.048400868 0.1663537
-0.11065292 -0.04024367 -0.038509533 -0.033225115 -0.36169893 0.19764908 -0.05098997 0.46725675
-0.10677672 -3.5585672e-38 -0.16274253 -0.08960832 -0.090468265 0.023463432 0.18399394 0.0952217
-1.511093e-38 0.16811565 0.39518353 -3.2458027e-19 -0.20094834 3.843913e-37 -0.32817563 7.4617717e-37
-0.26838872 0.28457287 0.050502878 0.012371551 0.027204197 0.25927445 -2.8266403e-10 0.04846498
6.807255e-37 -5.0816656e-37 -0.07643067 0.15366527 -0.13797598 0.14830112 -0.0080586 -0.030692479
-2.1226468e-37 -0.052406017 -1.2014466e-36 -4.615246e-37 -0.04837274 -0.05254347 -0.1483664 0.0879148
-0.032470968 -0.13359503 0.07917672 0.034716785 -0.15884744 4.5023536e-37 -0.056176525 0.11303739
00000000: ecce b43d 1eca 49bd c855 b4bd 2642 16bf
00000010: 87f7 0ebf 15db b63e 8bf7 72bb 2586 033f
00000020: 40e7 dfbe c233 be03 a80b 92be d8c1 82be
00000030: 784c 793c a75f a2bc 7b03 a43e fd7c 6e3e
00000040: 2644 df03 16e5 9ebe 47c4 aa3e 1ab0 4124
00000050: 9570 9abe 05a3 9503 b2fe 003e 1850 7e83
00000060: 4acd 02bf 351b f43e c429 43be ba5e c2be
00000070: d6f6 c9bc 82e8 973e 2c4c 5833 4519 be3e
00000080: 7f3e 1983 5e6e b283 dcc7 10be eb53 16bc
00000090: 1e07 c3be 9840 e43e f365 b3bd 0455 33bd
000000a0: 829d b102 e81a 94be 1764 a002 6d1b 3083
000000b0: 6729 833e 0edf df3e 49d7 013e 327b 4b3d
000000c0: 4bb1 ec3d 13e5 28bf 42dd b93d 9819 b9bc
000000d0: b64c 86be 9d1d d983 0a58 d1be 8cd4 cb3d
000000e0: c1d4 6c83 6e06 7683 2718 9e3e 917c debe
000000f0: b4e5 d282 1697 44be a4ef 58bd 984e 80ba
00000100: aea0 403d 7300 15bd 66ad 8dbe b018 243f
00000110: acc2 5401 22fc 2102 27e1 dd3e ef58 f7bd
00000120: 9bc7 1f3d 7ff6 fdb4 b98e 8fbd 55c2 b3be
00000130: 77e2 8a3d 3c58 e13e 8fd3 243e de13 233e
00000140: 96e0 3483 dd33 143e bb15 e43c a53a 98bc
00000150: 77a9 243e 859d 88bd 3f65 2a3e 3d45 ef3e
00000160: 746b d4be a67e 4903 0d55 e5bd ecd4 0103
00000170: f807 1203 f46e cabe d36c 303e cf5a 05bd
00000180: a87d bbbd 7455 0c81 4dfd 4283 0b4c e302
00000190: 040b 3b83 9273 75b9 0495 6f83 8998 1e3e
000001a0: 5e2e ccbb e48a e6be 7b2f 80be 432f 3a3d
000001b0: b2ae e3b3 a789 883d 03c0 a403 1091 2d3f
000001c0: 8d31 b6bd 568d 9f03 eb89 833c dc2f 8ebe
000001d0: 53c6 e9bd b40f 80bd 7541 02bb 5fe1 d3be
000001e0: 56c1 1cbd 404f dd3e cfc5 9e3d 8116 2abd
000001f0: 2520 a0be e190 1b3f c565 4fb8 ab2a 293e
00000200: a6ba ca3e db74 a5bc f07e 7503 345c 82be
00000210: fbdf f1be a496 4c83 282b b6be 8247 ae3b
00000220: f0cf 553e 83a8 863d b358 d603 ef51 7483
00000230: 58f0 30bf 60d3 043e 4855 173f 085d 29bc
00000240: 18a5 063e ca7f a6be fb39 5f83 22c7 373e
00000250: f2f9 2003 e045 3003 2bbf 85be cf70 c7bc
00000260: 62c6 2a03 8c2f cebe d09f 28bb eedc e8bc
00000270: 6af1 9135 5e05 8883 d20a 7a83 5bfc d33c
00000280: e177 b382 0be3 2b3f 0be0 db03 40ad 0c3b
00000290: 2736 f62e 769b 55be 9993 d3be 7306 9e3c
000002a0: 40f9 31bd 8867 2200 294e 1abf 7d81 0b3f
000002b0: 219f 25bf 3d8a ebbe 4ccd 4cbd 0244 9f3d
000002c0: 8ac2 843e b68b b402 0422 debd 1bfc 1dad
000002d0: cbe4 35bd 586e 873e e7a9 50bd c5cf b1be
000002e0: 0724 b53e 2e12 79bb 581a db03 3ce6 04bf
000002f0: 2e9e c53b 008b d13e fd0b 4e3e 91c5 0e03
00000300: 5e1e 58b8 7304 20bf 74c4 183e b325 1ebf
00000310: 823b 1b3f 7c58 3a01 fd3f 46bd a058 2a3e
00000320: 009e e2bd 8cd6 24bd 2cbc 1dbd 0f17 08bd
00000330: 9a30 b9be 8564 4a3e dcda 50bd 473c ef3e
00000340: c1ad dabd 30bf 4181 faa5 26be 9184 b7bd
00000350: 6d47 b9bd 6236 c03c e868 3c3e 9803 c33d
00000360: 208b a480 8226 2c3e 7f55 ca3e 2f99 bfa0
00000370: 67c5 4dbe 34cd 0203 a306 a8be 33e9 7d03
00000380: 3f6a 89be 89b3 913e 1bdc 4e3d 0cb2 4a3c
00000390: 56db de3c 9fbf 843e 6d65 9baf 3783 463d
000003a0: 8ea3 6703 8deb 2c83 af87 9cbd 6e5a 1d3e
000003b0: 9349 0dbe 40dc 173e 3808 04bc cb6e fbbc
000003c0: b975 9082 b1a7 56bd 616a cc83 770c 1d83
000003d0: 7f22 46bd d237 57bd 5ded 17be ad0c b43d
000003e0: 4700 05bd 23cd 08be 6727 a23d 3033 0e3d
000003f0: e7a8 22be 0835 1903 5b19 66bd 2680 e73d

intercepts f4 [1, 200]
0.116757765 -0.15201369 0.14346103 -0.0127899125 0.14155972 0.11930623 0.03469214 -0.2000039
-0.45828134 -0.032104127 -0.12786329 -0.33302736 0.11787377 -0.360033 0.16506931 0.1286219
-0.098675914 -0.2722039 0.2075716 -0.003681128 0.27617693 -0.11276637 0.24257073 -0.08063434
-0.07759513 -0.25128117 0.24282117 -0.29362175 0.055334292 0.25235245 -0.04335011 0.12872173
-0.13601142 -0.0019182973 0.22861753 -0.26149252 -0.2740117 0.12641825 0.026271623 0.10233187
-0.034583647 0.2898936 -0.04073173 -0.12277392 0.4598552 -0.30749536 0.20451161 0.37239897
-0.31728873 -0.059347395 0.11406615 0.27451745 0.23312624 -0.12581505 -0.0556728 0.06639187
-0.016399868 -0.022136297 -0.26456538 -0.565771 -0.0857837 -0.26457787 0.053890176 0.0007362405
0.075365186 0.006641796 -0.26204032 -0.12503922 -0.087147854 -0.06749304 -0.220082 0.22268075
0.08172247 -0.0967518 0.025456693 0.03372125 -0.03228623 0.23734301 0.2583354 0.30454952
-0.08207996 0.09717271 0.02119383 0.18714683 -0.29325336 0.087151736 0.41729257 0.18166237
-0.10367039 -0.11417489 0.24641003 -0.042282186 -0.104526654 0.20480971 0.1765661 0.17589657
0.11581823 -0.14441875 -0.09805381 -0.055785768 -0.00095511874 -0.032214355 -0.15189515 0.35257053
0.0811645 0.17314625 0.16164371 0.26575518 -0.13318355 0.08688603 -0.05213811 0.001398298
0.35846573 -0.105855644 -0.004141635 0.35103598 -0.23779261 0.42074335 -0.013713279 0.10026389
0.06635569 0.029356955 0.18191543 0.04140568 -0.1371471 0.18936501 -0.023478227 -0.14347391
0.1265356 -0.0069480864 -0.04949032 0.045424547 -0.20581104 -0.09950868 0.11749953 -0.03580218
0.12444593 0.17251438 -0.12952788 -0.052942514 0.25875992 0.27251205 -0.32252863 -0.309754
-0.58405846 0.1653678 -0.038479794 0.2768414 -0.1493374 -0.07315078 -0.3479422 0.1766868
-0.043970287 -0.4486769 -0.020117503 0.05898097 -0.034040928 -0.07554037 -0.005548209 0.006788228
-0.09110557 0.06046763 -0.111026034 0.011937202 -0.15213309 -0.0045549157 0.2202472 -0.07845773
-0.053668853 -0.09177585 -0.16979149 0.16311446 0.22106877 0.13915327 -0.12658015 0.0040410906
0.41499707 -0.08912034 -0.0020308355 -0.12709585 0.04580755 -0.11166925 -0.15276466 0.13528074
0.24150887 0.11811178 -0.14133206 0.20876107 0.10728885 0.25733775 0.35103968 -0.05231686
-0.19165272 0.16198574 0.031711116 0.17021498 0.12394624 -0.13716713 0.07521068 -0.029620878
00000000: b21e ef3d 7aa9 1bbe 73e7 123e c88c 51bc
00000010: 08f5 103e d356 f43d 5819 0e3d d3cd 4cbe
00000020: daa3 eabe 9e7f 03bd 98ee 02be 9082 aabe
00000030: ce67 f13d 3f56 b8be ee07 293e 76b5 033e
00000040: 9916 cabd 4f5e 8bbe a68d 543e 143f 71bb
00000050: 1067 8d3e 0ef2 e6bd 7664 783e 9e23 a5bd
00000060: 32ea 9ebd eda7 80be 1da6 783e 9755 96be
00000070: 36a6 623d 5734 813e e38f 31bd a1cf 033e
00000080: 9446 0bbe 606f fbba b71a 6a3e 59e2 85be
00000090: 434b 8cbe c973 013e 9637 d73c 5f93 d13d
000000a0: 95a7 0dbd ef6c 943e 51d6 26bd e570 fbbd
000000b0: 2472 eb3e 0870 9dbe 7e6b 513e 14ab be3e
000000c0: ab73 a2be 4116 73bd 839b e93d 8d8d 8c3e
000000d0: a5b8 6e3e a9d5 00be 2909 64bd 76f8 873d
000000e0: 0459 86bc 2e57 b5bc 1d75 87be 5ed6 10bf
000000f0: 5daf afbd c076 87be f2bb 5c3d 4300 413a
00000100: 1059 9a3d 6ca3 d93b 262a 86be 480a 00be
00000110: 937a b2bd ca39 8abd 2d5d 61be 6c06 643e
00000120: 1c5e a73d cf25 c6bd 8e8a d03c 4b1f 0a3d
00000130: 913e 04bd 0c0a 733e 8a44 843e eaed 9b3e
00000140: 8a19 a8bd 7c02 c73d af9e ad3c 6ba3 3f3e
00000150: 4e25 96be 9c7c b23d 5fa7 d53e b305 3a3e
00000160: 2451 d4bd 86d4 e9bd e952 7c3e 1630 2dbd
00000170: 1212 d6bd a3b9 513e becd 343e 3b1e 343e
00000180: 1c32 ed3d 82e2 13be 70d0 c8bd 9e7f 64bd
00000190: ef60 7aba 33f3 03bd 678a 1bbe 2084 b43e
000001a0: 9339 a63d 404d 313e ee85 253e 1011 883e
000001b0: 4561 08be 4ef1 b13d c58e 55bd 1847 b73a
000001c0: d288 b73e d8ca d8bd 8db6 87bb fdba b33e
000001d0: e87f 73be ac6b d73e a9ad 60bc 2857 cd3d
000001e0: 7ee5 873d ff7d f03c 0a48 3a3e 0199 293d
000001f0: 4a70 0cbe e7e8 413e 6955 c0bc d3ea 12be
00000200: 8c92 013e c6ac e3bb 5db6 4abd 170f 3a3d
00000210: 21c0 52be 35cb cbbd 98a3 f03d 4fa5 12bd
00000220: 82dd fe3d 9ca7 303e f5a2 04be 40da 58bd
00000230: 2e7c 843e b386 8b3e 7922 a5be 1498 9ebe
00000240: db84 15bf 2d56 293e fd9c 1dbd 28be 8d3e
00000250: e7eb 18be 13d0 95bd 7b25 b2be 62ed 343e
00000260: 301a 34bd fbb8 e5be 76cd a4bc 0896 713d
00000270: 806e 0bbd e9b4 9abd c0cd b5bb c96f de3b
00000280: 8f95 babd e8ac 773d 9e61 e3bd 4194 433c
00000290: c7c8 1bbe 6741 95bb 7b88 613e 72ae a0bd
000002a0: dfd3 5bbd faf4 bbbd d2dd 2dbe 7a07 273e
000002b0: da5f 623e 327e 0e3e 3a9e 01be 206b 843b
000002c0: 7f7a d43e ba84 b6bd c417 05bb 6a25 02be
000002d0: b3a0 3b3d d9b2 e4bd 576e 1cbe 0987 0a3e
000002e0: 1a4e 773e 97e4 f13d 5ab9 10be 76c5 553e
000002f0: 42ba db3d c6c1 833e 79bb b33e 344a 56bd
00000300: 9c40 44be 97df 253e 84e3 013d d64c 2e3e
00000310: 87d7 fd3d 8a75 0cbe 0f08 9a3d 7ca7 f2bc

coefficient1 f4 [200, 150]
-0.12950668 0.15169196 -0.13870034 -9.32638e-37 -9.437481e-37 -4.201444e-37 0.4107239 -0.3303293
0.014145245 0.009438866 0.15308961 -7.4840963e-38 7.3501804e-37 -0.13424484 -7.1954205e-37 0.34565848
-0.18526225 -0.023879515 -0.14085473 -0.17751847 0.08175907 -0.46259233 0.18571627 -0.2265921
-7.2653294e-37 0.20317505 -0.30962718 0.33722195 -0.21905494 0.5436896 0.32666248 -0.0669869
0.16326664 0.07960216 -5.679654e-37 0.13391203 4.8375034e-37 4.131703e-37 -6.8175897e-37 -0.016424859
7.2844077e-37 0.21996848 -0.13356869 0.18335094 -0.027510028 -0.16536753 -0.13671176 0.0789328
-0.29919332 0.16081391 -0.2452857 0.28644872 0.20682473 0.11190245 0.14439626 -6.8971363e-37
-0.21507558 0.07562561 3.7383948e-37 0.37610948 3.0903214e-37 7.3007327e-37 -0.14335877 0.2921166
-0.3596508 0.12385207 -2.0163432e-37 0.19828537 -0.19292113 0.31837538 0.0095505 -0.39270338
-0.04805074 -4.7200553e-37 1.9152638e-37 5.7866604e-37 0.17174673 0.23050581 6.9379677e-37 0.3269948
1.1087549e-36 0.24586342 0.3610202 0.29391438 -4.493696e-37 -9.3854364e-38 0.12921081 0.3316952
-7.627378e-37 7.43345e-37 0.10882148 4.1853355e-37 -0.14496315 -0.36702156 -0.17634402 -6.9111404e-37
-0.11660042 -0.29148114 -3.3430013e-37 0.23295005 -1.2831103e-36 -0.08341614 -0.093694076 -4.95674e-38
-0.4238031 -0.2689104 -6.804348e-37 -7.0691248e-37 -0.07970866 8.218017e-06 -9.7322255e-37 0.37317938
-6.903028e-37 -0.3945194 0.0038749166 -6.4881715e-12 -0.4190732 -0.21580581 0.106468156 -2.0607695e-37
-0.19310313 0.124144085 -4.4743648e-23 1.1471159e-36 0.04230443 0.09166363 -0.034094643 -0.028214915
8.3827405e-37 0.004685665 -2.015021e-37 0.31913272 0.18416005 1.1693853e-36 9.574664e-37 -5.1108364e-37
0.010181404 0.107646674 0.30712792 1.291069e-36 -0.18229203 0.1460499 -0.28163794 -6.318599e-37
0.31035691 0.2446258 0.18922997 0.06043414 0.16415863 0.026595866 -2.6358356e-11 5.7290784e-15
0.0013586765 -5.8447056e-37 -1.1120896e-36 -1.6994323e-37 -0.00033480703 0.00016964237 -2.5399413e-05 4.1801126e-05
-7.0524475e-05 9.814883e-38 -3.486501e-37 -0.00015325833 -3.235129e-36 2.302677e-13 2.7546294e-08 2.7448461e-05
-0.002271006 -0.0016023589 4.360929e-05 0.00053515617 4.6518164e-08 1.110538e-06 7.107504e-37 0.0061193043
0.00015664539 9.751126e-05 6.178828e-06 4.0122867e-08 -7.076286e-07 8.3784e-06 0.000111095585 0.00074476434
-7.215782e-37 0.004801988 6.5693276e-37 7.89416e-38 -7.027149e-37 -3.8111489e-06 -5.6857616e-37 -0.00015916888
-0.0012009945 -2.7598592e-09 9.168646e-23 -0.00011160377 0.0018159786 -0.0026154313 -1.718081e-05 -0.00010335343
1.3060903e-05 0.00030892238 -1.682647e-07 -0.0010765721 -0.0027450742 -7.523784e-37 1.3130446e-07 -9.188763e-08
-3.1852487e-37 -3.1126834e-05 -3.8481194e-37 -7.424923e-37 1.04069406e-10 -1.2279778e-06 -0.00087292196 -0.00012591764
-9.054276e-38 -5.843239e-11 0.00171199 0.00066580233 -0.0013287746 0.0020943107 -0.008355495 -1.1664129e-36
-7.231826e-37 -4.627659e-37 -2.7092037e-08 -7.359922e-37 6.8377007e-37 -0.00023745093 -5.7322376e-37 -0.0019871728
-4.5669244e-06 0.008729176 8.618848e-37 -2.8499267e-37 -0.0049668434 -2.7946782e-05 -4.1279204e-37 7.200983e-37
-0.0029130944 3.546426e-37 -0.00011649031 0.00058744295 0.00019675303 -7.3679018e-37 3.135721e-20 -2.6871462e-07
7.747328e-37 -1.2078777e-09 4.27546e-37 0.00018453576 -8.1966695e-10 3.5192667e-37 -6.917817e-08 -4.1753316e-07
00000000: 669d 04be 2355 1b3e 7607 0ebe 1dae 9e83
00000010: 0792 a083 bdf7 0e83 674a d23e ec20 a9be
00000020: 75c1 673c 79a5 1a3c 86c3 1c3e 8abc cb81
00000030: 1a1d 7a03 7b77 09be f4d8 7483 26fa b03e
00000040: 63b5 3dbe f99e c3bc 393c 10be 67c7 35be
00000050: 4d71 a73d e7d8 ecbe 682c 3e3e c207 68be
00000060: f239 7783 1f0d 503e 7487 9ebe 5ba8 ac3e
00000070: f04f 60be 3e2f 0b3f 4e40 a73e 6e30 89bd
00000080: 5f2f 273e 7506 a33d c444 4183 3c20 093e
00000090: 999c 2403 3698 0c03 95fd 6783 6d8d 86bc
000000a0: 24e0 7703 6b3f 613e 3bc6 08be 59c0 3b3e
000000b0: b65c e1bc 1b56 29be 2bfe 0bbe 85a7 a13d
000000c0: de2f 99be 67ac 243e 2d2c 7bbe 68a9 923e
000000d0: ddc9 533e 1d2d e53d 9ddc 133e 88b2 6a83
000000e0: c63c 5cbe 9ae1 9a3d 066c fe02 6c91 c03e
000000f0: fe50 d202 5a6e 7803 a4cc 12be 4f90 953e
00000100: 2624 b8be 27a6 fd3d a739 8982 520b 4b3e
00000110: 1e8d 45be 1902 a33e b379 1c3c 6b10 c9be
00000120: dad0 44bd 7b9d 2083 9a58 8202 ece8 4403
00000130: 60de 2f3e b709 6c3e 3916 6c03 dd6b a73e
00000140: 16a5 bc03 9fc3 7b3e a4d7 b83e f27b 963e
00000150: 9de9 1883 f27e ff81 d74f 043e f4d3 a93e
00000160: ebc5 8183 7bf2 7c03 ccdd de3d 6a6b 0e03
00000170: 3871 14be 40ea bbbe 8793 34be 862c 6b83
00000180: 33cc eebd 043d 95be 4c83 e382 758a 6e3e
00000190: 564f da83 15d6 aabd aee2 bfbd 70ef 8681
000001a0: b8fc d8be a0ae 89be 3b8a 6783 c38c 7083
000001b0: 4b3e a3bd 1de0 0937 d295 a583 5e11 bf3e
000001c0: dbe5 6a83 72fe c9be 50f2 7d3b 4148 e4ac
000001d0: c390 d6be 33fc 5cbe fa0b da3d ab3f 8c82
000001e0: d4bc 45be 413f fe3d f45d 589a f22b c303
000001f0: 6947 2d3d 24ba bb3d d3a6 0bbd f722 e7bc
00000200: fc9f 8e03 358a 993b 9e22 8982 5d65 a33e
00000210: 7494 3c3e eaf5 c603 8be7 a203 aae9 2d83
00000220: e7cf 263c dc75 dc3d df3f 9d3e fca9 db03
00000230: c3aa 3abe 1b8e 153e d932 90be c302 5783
00000240: 1ae7 9e3e 307f 7a3e 80c5 413e ca89 773d
00000250: 3319 283e 93df d93c bed9 e7ad 6c69 ce27
00000260: 9e15 b23a 91e2 4683 5536 bd83 9350 6782
00000270: 0a89 afb9 07e2 3139 d310 d5b7 9e53 2f38
00000280: 8ae6 93b8 e097 0502 6a47 ed82 f8b3 20b9
00000290: 6f9b 8984 13a1 812a f19e ec32 1f41 e637
000002a0: 28d5 14bb 3e06 d2ba 1ee9 3638 b949 0c3a
000002b0: 43cb 4733 cc0d 9535 18db 7103 7284 c83b
000002c0: 2d41 2439 f67e cc38 ba53 cf36 8f53 2c33
000002d0: def3 3db5 f490 0c37 fdfb e838 4a3c 433a
000002e0: 548a 7583 ff59 9d3b ea8a 5f03 44e6 d601
000002f0: 1a1f 6f83 0ac3 7fb6 f879 4183 92e6 26b9
00000300: b06a 9dba f5a7 3db1 2caf dd1a d10c eab8
00000310: 2106 ee3a a867 2bbb 821f 90b7 73bf d8b8
00000320: 2720 5b37 dcf6 a139 40ac 34b4 c41b 8dba
00000330: b4e6 33bb b302 8083 b2fc 0c34 c253 c5b3
00000340: dcc6 d882 2f8e 02b8 d9f1 0283 34a8 7c83
00000350: ded9 e42e ffd0 a4b5 cdd4 64ba c208 04b9
00000360: 187b f681 837e 80ae da64 e03a 3d89 2e3a
00000370: 472a aeba b440 093b 7ce5 08bc 7274 c683
00000380: 1716 7683 9878 1d83 05b8 e8b2 f771 7a83
00000390: c6ac 6803 40fc 78b9 d50e 4383 3a3b 02bb
000003a0: 953d 99b6 d104 0f3c 61a4 9203 baf4 c182
000003b0: e7c0 a2bb 426f eab7 4277 0c83 6909 7503
000003c0: 9de9 3ebb 755b f102 424c f4b8 a1fe 193a
000003d0: 7d4f 4e39 7ab7 7a83 8a14 141f db43 90b4
000003e0: 5fd0 8303 6b02 a6b0 827c 1103 f17f 4139
000003f0: ef4e 61b0 4682 ef02 1a8f 94b3 5229 e0b4

intercepts1 f4 [1, 150]
-0.11103683 0.12259916 -0.056591943 -0.087720565 -0.0875784 -0.06343872 0.107549556 7.710288e-05
0.20979363 0.0058932453 0.13989644 -0.088268556 -0.12090591 0.13430674 -0.03421552 0.0708828
-0.20680943 -0.078825586 -0.022766365 0.08652869 0.18553273 -0.05809127 -0.031104406 -0.04685921
-0.13698542 -0.08478037 -0.1650187 0.08333512 0.15511161 -0.037223037 0.30762383 -0.24656709
0.09660588 -0.012890919 -0.0018842756 -0.118590996 -0.042732537 -0.078911826 -0.0036534183 0.1068788
-0.042245045 0.01906815 0.21668446 0.111359246 0.00052864925 -0.057954066 0.16941501 -0.12530418
-0.1204962 0.045895997 -0.3053241 0.037512284 0.1331832 -0.023315996 0.20162834 -0.0064807665
-0.0066400706 0.26278195 -0.111268155 -0.0034388818 -0.060098995 -0.014530467 -0.13415134 0.04823348
0.09829655 -0.101273775 -0.055175334 0.12517966 -0.3155081 0.08148735 0.23454304 -0.29443657
0.054833524 -0.07304097 -0.13338147 -0.087986104 0.06453121 -0.037554055 -0.13445611 -0.035364743
-0.10045306 0.017783044 0.059279624 -0.027339945 -0.09295619 -0.03828606 0.09298994 -0.16821809
-0.008008508 -0.022862235 0.16409574 -0.08217214 -0.16978118 0.026064157 0.04263429 -0.09465351
-0.039927233 0.31093737 -0.083789825 -0.006762302 -0.11831783 -0.095135756 0.03835756 -0.047502328
0.040845476 0.13490346 -0.009855837 -0.012535305 0.32976338 -0.009030557 -0.10377041 0.21562815
-0.12458434 0.13521308 -0.08429168 -0.062446553 0.047027566 0.1276655 0.17241569 -0.09114636
-0.04259751 0.184791 -0.05864785 -0.09781822 0.086885355 -0.16897036 0.14162694 -0.0060521546
-0.05908928 0.0017317106 -0.0013313105 0.23767176 0.18214881 -0.1175101 -0.023568688 -0.12388547
0.19757083 0.17905389 -0.023661867 -0.09636678 -0.02362494 0.19269285 0.012138631 -0.07056597
-0.052113302 0.07705663 0.19650888 0.056931473 0.019379633 -0.015024668
00000000: 4767 e3bd 4515 fb3d f4cc 67bd d7a6 b3bd
00000010: 4e5c b3bd 29ec 81bd f142 dc3d 4bb2 a138
00000020: 24d4 563e 201c c13b 0341 0f3e 25c6 b4bd
00000030: 859d f7bd b587 093e 9325 0cbd 002b 913d
00000040: dac5 53be 4f6f a1bd 8780 babc f435 b13d
00000050: 4bfc 3d3e 1df1 6dbd abce febc 71ef 3fbd
00000060: e845 0cbe 55a1 adbd a9fa 28be 9aab aa3d
00000070: 94d5 1e3e 2f77 18bd df80 9d3e 157c 7cbe
00000080: 4ed9 c53d 6f34 53bc ccf9 f6ba d6df f2bd
00000090: 5008 2fbd 869c a1bd 306e 6fbb 46e3 da3d
000000a0: 2409 2dbd cf34 9c3c 88e2 5d3e 5110 e43d
000000b0: 0d95 0a3a 3e61 6dbd 217b 2d3e bd4f 00be
000000c0: b6c6 f6bd 71fd 3b3d 7153 9cbe 7ba6 193d
000000d0: 2d61 083e 3001 bfbc a977 4e3e 9c5c d4bb
000000e0: f394 d9bb 5b8b 863e 8fe0 e3bd dd5e 61bb
000000f0: 5d2a 76bd 3211 6ebc f85e 09be 7890 453d
00000100: b44f c93d a068 cfbd 88ff 61bd 192f 003e
00000110: 478a a1be d7e2 a63d 0d2c 703e 64c0 96be
00000120: 1e99 603d 8196 95bd 2795 08be 0f32 b4bd
00000130: f028 843d 48d2 19bd ddae 09be 9fda 10bd
00000140: 55ba cdbd bfad 913c 31cf 723d 05f8 dfbc
00000150: d15f bebd d8d1 1cbd 8271 be3d 5d41 2cbe
00000160: 1e36 03bc 9549 bbbc b708 283e de49 a8bd
00000170: 1edb 2dbe 8084 d53c 4ba1 2e3d b3d9 c1bd
00000180: bd8a 23bd 2f33 9f3e 009a abbd 4d96 ddbb
00000190: 9e50 f2bd 89d6 c2bd d11c 1d3d cd91 42bd
000001a0: 964d 273d 2224 0a3e 607a 21bc e160 4dbc
000001b0: bfd6 a83e e7f4 13bc 9585 d4bd a0cd 5c3e
000001c0: 1326 ffbd 4c75 0a3e 1ea1 acbd f5c7 7fbd
000001d0: fa9f 403d bfba 023e bd8d 303e f1aa babd
000001e0: ba7a 2ebd da39 3d3e ba38 70bd eb54 c8bd
000001f0: f3f0 b13d 9106 2dbe a706 113e 2751 c6bb
00000200: 9a07 72bd 91fa e23a 5e7f aeba 3a60 733e
00000210: 3885 3a3e 23a9 f0bd 1f13 c1bc aab7 fdbd
00000220: 0250 4a3e e759 373e 88d6 c1bc f25b c5bd
00000230: 1789 c1bc 4651 453e 1ce1 463c e484 90bd
00000240: c274 55bd decf 9d3d a039 493e fa30 693d
00000250: 09c2 9e3c 062a 76bc

coefficient2 f4 [150, 100]
-0.35952234 2.123051 0.28350896 0.45744827 0.52721393 -2.6759397e-37 -6.8308085e-37 -7.3899575e-37
-0.44217083 -1.1182767e-36 0.2596586 0.13690408 0.29324672 0.61002 9.517133e-37 -0.1093119
-0.3745276 -3.3545771e-37 -0.33023268 0.042411096 -0.045511547 1.0459376e-36 0.840778 7.3158694e-37
2.4870998e-37 0.5760481 0.45412424 1.4064939 6.337189e-37 -0.1472739 -0.34940875 -3.8146115e-37
0.1335304 0.31239355 -2.6143898e-37 5.1633745e-37 -0.30682322 1.4596669e-37 -0.29330865 -0.25781858
0.34489048 0.27390054 0.13305299 -0.036599953 -6.3476184e-37 0.10309123 0.52318794 -1.2572678e-36
0.68370473 -0.11168997 0.29949045 -0.2402447 -0.30946463 2.3799238 -6.295357e-37 -0.35618752
-0.25580123 -0.41865852 0.11371088 1.19077e-36 -0.5794262 8.459609e-37 -0.32262242 0.4908235
0.23546077 -1.3805671e-36 0.47095475 0.16672215 0.11579351 -0.2257685 0.23920639 -0.35133207
-0.06486661 0.5560925 -0.37889668 -0.32405534 -0.39637226 0.62896436 0.2692697 0.735561
-0.03665026 -7.255297e-37 0.61769265 7.168953e-39 0.22768511 1.3441601e-36 -4.2676825e-37 0.018713966
-0.4359144 -0.33976024 -0.16205113 0.3544016 -0.20813085 -0.27717617 -6.729309e-37 0.42873344
-0.30708164 0.41882482 -0.013659179 7.1909086e-37 0.04084332 0.06646395 -0.35175627 -0.017617103
-0.197648 2.0881473e-37 6.848352e-37 7.0670827e-37 0.20557578 4.8404696e-37 -0.2312278 -0.2383327
-0.78579766 0.10525468 -3.2410146e-37 -0.31063494 0.13177462 -2.9594612e-37 0.20198813 -0.1947376
-1.3303071 1.0336214e-36 0.03339773 -1.8374615e-37 -7.566476e-37 -0.23340258 -0.13767348 0.1509512
-2.3650098e-37 0.09579294 0.10150481 2.3516479e-37 0.10587724 -0.34355757 9.672121e-38 -7.7409876e-36
0.25374585 3.6579585e-37 -0.17492665 0.34909418 -0.10668285 -0.95098776 -0.3836187 -0.48001304
-2.5302058e-37 -0.49737528 -0.28285292 -5.966175e-37 -0.23559375 0.38913545 -0.3285714 0.33742332
0.45975822 0.13550942 3.6037302e-37 0.06617434 0.42604542 0.42731366 0.007444418 7.1686385e-37
-0.03158256 -6.608153e-37 0.12276253 -0.3695585 0.04008396 -6.6722806e-37 -0.18393248 -0.20486562
0.14153485 0.19961005 -0.30241835 0.34923413 -0.21962102 0.11446419 0.18779059 0.25100648
-0.32026544 0.3631722 -0.38578165 0.16489102 0.0018314758 6.908639e-37 -0.60547674 -7.836988e-37
-0.83141917 -6.4154863e-38 -7.064134e-37 -0.016954837 0.30656937 0.115940474 -0.149145 -0.17422797
0.32280573 0.27360326 5.0546472e-37 -0.008629155 0.20676145 -0.032123405 0.43721247 6.9322867e-37
0.13841012 -0.7662215 0.2948824 -0.17904785 0.1206037 -7.3293703e-37 7.3516924e-37 -7.463964e-37
0.19619639 -4.843987e-37 -0.16099069 0.0030337856 0.022270108 0.10723994 -4.4099406e-38 0.10075659
0.062401358 6.838928e-37 -0.057034325 0.04931761 0.046533477 -7.475576e-37 -0.2021586 -7.1706635e-37
8.8739635e-38 0.08675543 -0.04377303 -0.12787093 1.2918601e-37 0.13485008 0.0805937 -6.2097257e-37
0.093802206 0.14501409 5.064149e-38 -7.3262996e-37 0.059980594 1.790725e-39 0.24134767 0.089443825
-0.0032675928 -0.065334894 -0.084596135 0.03243658 -3.6695839e-37 0.20468645 -0.12244329 -1.3072736e-37
-0.067445174 -0.068346344 0.09865093 -0.1762575 -0.004221367 0.09678827 6.5423912e-37 -0.24314575
00000000: 5013 b8be 11e0 0740 1628 913e a936 ea3e
00000010: 7ef7 063f 721d b682 bc70 6883 9c77 7b83
00000020: 3764 e2be d243 be83 f9f1 843e 9530 0c3e
00000030: 6f24 963e 452a 1c3f f6ec a103 ebde dfbd
00000040: 15c2 bfbe fa4c e482 4214 a9be 42b7 2d3d
00000050: 516a 3abd 02f5 b103 3a3d 573f 36f2 7803
00000060: 6443 a902 e377 133f f982 e83e fe07 b43f
00000070: b4a4 5703 f8ce 16be b4e5 b2be f4cd 0183
00000080: 31bc 083e 0cf2 9f3e 18ed b182 56b3 2f03
00000090: ef17 9dbe f8ad 4602 8d2c 96be cc00 84be
000000a0: 7c95 b03e b13c 8c3e 0b3f 083e d5e9 15bd
000000b0: 8eff 5783 7f21 d33d a5ef 053f bce9 d583
000000c0: 4607 2f3f b6bd e4bd d056 993e b502 76be
000000d0: 2672 9ebe ac50 1840 4b38 5683 365e b6be
000000e0: 61f8 82be 695a d6be 40e1 e83d 5999 ca03
000000f0: 4755 14bf cbee 8f03 c42e a5be 384d fb3e
00000100: a11c 713e 2ee4 ea83 fb20 f13e 36b9 2a3e
00000110: 2625 ed3d dc2f 67be 85f2 743e cce1 b3be
00000120: c9d8 84bd 145c 0e3f bffe c1be 95ea a5be
00000130: 4ef1 cabe cf03 213f b8dd 893e ba4d 3c3f
00000140: 951e 16bd 8de2 7683 1b21 1e3f 2010 4e00
00000150: 4926 693e 6eb2 e403 c238 1183 084e 993c
00000160: 2c30 dfbe 0ef5 adbe bbf0 25be 2074 b53e
00000170: 4120 55be 09ea 8dbe 8dfc 6483 f382 db3e
00000180: ce39 9dbe 3570 d63e c0ca 5fbc a6b1 7403
00000190: 534b 273d 401e 883d 6619 b4be be51 90bc
000001a0: 3d64 4abe a81c 8e02 8f09 6903 f97a 7003
000001b0: 7582 523e 70b6 2403 fbc6 6cbe 7d0d 74be
000001c0: 092a 49bf c48f d73d 7092 dc82 8b0b 9fbe
000001d0: edef 063e 1669 c982 fad5 4e3e 4b69 47be
000001e0: 8147 aabf 90dc af03 0fcc 083d 301a 7a82
000001f0: a7bc 8083 1601 6fbe 47fa 0cbe f492 1a3e
00000200: 48f4 a082 172f c43d c1e1 cf3d 7c0b a002
00000210: 2bd6 d83d c7e6 afbe 6ca6 0302 f2a1 2485
00000220: faea 813e a0f2 f802 f91f 33be 79bc b23e
00000230: 8a7c dabd ef73 73bf ac69 c4be 45c4 f5be
00000240: 6732 ac82 f9a7 febe 19d2 90be b704 4b83
00000250: 7d3f 71be c33c c73e 833a a8be c0c2 ac3e
00000260: 6e65 eb3e fbc2 0a3e d641 f502 6a86 873d
00000270: a022 da3e dbc8 da3e 4ef0 f33b a6ef 7303
00000280: b75c 01bd 22dd 6083 ec6a fb3d c636 bdbe
00000290: 142f 243d c30b 6383 cc58 3cbe 4bc8 51be
000002a0: 83ee 103e 9466 4c3e 94d6 9abe d1ce b23e
000002b0: 55e4 60be 346c ea3d 2d4c 403e ec83 803e
000002c0: d5f9 a3be b5f1 b93e 2c85 c5be 31d9 283e
000002d0: 210e f03a bc16 6b03 8600 1bbf e656 8583
000002e0: e3d7 54bf 6aa5 ae81 4961 7083 dfe4 8abc
000002f0: a9f6 9c3e 3372 ed3d 78b9 18be d168 32be
00000300: cb46 a53e ba15 8c3e 3000 2c03 4d61 0dbc
00000310: 46b9 533e d593 03bd 50da df3e bce4 6b03
00000320: 62bb 0d3e 1827 44bf d3fa 963e 5258 37be
00000330: 13ff f63d d267 7983 462a 7a03 4cfc 7d83
00000340: b5e7 483e 14d5 2483 beda 24be 7ad2 463b
00000350: cd6f b63c 9da0 db3d 9a19 7081 7959 ce3d
00000360: 9198 7f3d 77b7 6803 d39c 69bd 4301 4a3d
00000370: e399 3e3d 7461 7e83 aa02 4fbe 4a01 7483
00000380: 8092 f101 d5ac b13d 594b 33bd 99f0 02be
00000390: c1d6 2f02 2416 0a3e 4f0e a53d 574e 5383
000003a0: 5f1b c03d 937e 143e f8db 8901 124d 7983
000003b0: 36ae 753d d07f 1300 d823 773e 532e b73d
000003c0: 1c25 56bb 4dce 85bd bd40 adbd 38dc 043d
000003d0: 2bbd f982 5399 513e 8cc3 fabd d6ef 3182
000003e0: b220 8abd 2bf9 8bbd 8009 ca3d d97c 34be
000003f0: 6553 8abb ee38 c63d 44a0 5e03 33fb 78be

intercepts2 f4 [1, 100]
-0.036458954 -0.26945543 -0.04232115 0.24099754 -0.03215846 -0.050123833 -0.06730152 -0.0071954117
0.115487956 -0.11711618 0.049297407 0.04782882 0.14198083 0.012459461 -0.104685694 -0.13728873
0.05617956 -0.05855653 0.05587867 0.0167509 0.0637481 -0.035523992 0.16951203 -0.18282886
-0.1376268 0.0052188653 0.19827008 0.11996959 -0.043426137 0.1348226 -0.1088803 -0.053013492
-0.124663465 -0.16088839 -0.061571784 -0.062211994 0.13767678 -0.11383253 -0.10799786 0.11897178
-0.14733773 0.116668254 -0.094075106 0.06348498 -0.13051774 0.1368421 -0.021944389 -0.1204628
0.08709591 0.14666928 0.099184625 -0.013899522 0.11268965 -0.10407508 -0.012509623 0.18685777
-0.024241488 0.10713871 0.020775832 -0.047340892 -0.21927765 -0.09328895 0.014577785 0.0707869
0.11876037 -0.063773714 0.13168637 0.17131852 0.028583271 -0.046353366 0.17183986 0.09681042
-0.07168607 0.09830661 0.058235995 0.12574083 0.040752653 -0.18647252 0.10449706 -0.07980702
-0.01565644 -0.069842145 0.07909503 -0.1152984 0.024358876 -0.093082 -0.10670627 0.0059288726
0.100404106 -0.08985204 0.16371743 0.004458427 0.02560656 -0.016936615 -0.10316085 0.14015463
-0.045591798 0.044197697 0.105182186 -0.031834073
00000000: fc55 15bd 10f6 89be f158 2dbd 0fc8 763e
00000010: 97b8 03bd a64e 4dbd 61d5 89bd 7dc7 ebbb
00000020: f384 ec3d 9cda efbd 14ec 493d 27e8 433d
00000030: 6c63 113e c422 4c3c 7465 d6bd 6b95 0cbe
00000040: 8a1c 663d f9d8 6fbd 08e1 643d 2f39 893c
00000050: 5d8e 823d 9b81 11bd 9094 2d3e 7d37 3bbe
00000060: 0aee 0cbe 0403 ab3b 5007 4b3e 9eb2 f53d
00000070: 9bdf 31bd f00e 0a3e a2fc debd ad24 59bd
00000080: 8f4f ffbd edbf 24be b232 7cbd 01d2 7ebd
00000090: 24fb 0c3e 0821 e9bd fb2d ddbd 7aa7 f33d
000000a0: b4df 16be c4ef ee3d 73aa c0bd 6a04 823d
000000b0: 71a6 05be 5620 0c3e b8c4 b3bc 33b5 f6bd
000000c0: 575f b23d 7930 163e 4f21 cb3d d2ba 63bc
000000d0: d5c9 e63d 5125 d5bd 29f5 4cbc a557 3f3e
000000e0: 1696 c6bc 8a6b db3d 1432 aa3c 86e8 41bd
000000f0: 528a 60be 470e bfbd a9d7 6e3c b9f8 903d
00000100: a338 f33d cb9b 82bd cbd8 063e 1f6e 2f3e
00000110: 7727 ea3c 07dd 3dbd caf6 2f3e 8b44 c63d
00000120: 25d0 92bd fa54 c93d de88 6e3d 34c2 003e
00000130: 41ec 263d a7f2 3ebe 8e02 d63d dd71 a3bd
00000140: ef41 80bc 6609 8fbd 93fc a13d 9121 ecbd
00000150: 448c c73c c7a1 bebd d188 dabd fd46 c23b
00000160: aba0 cd3d 5904 b8bd 8ba5 273e ff17 923b
00000170: d9c4 d13c a8be 8abc ff45 d3bd b284 0f3e
00000180: 77be 3abd a508 353d c269 d73d 7264 02bd

coefficient3 f4 [100, 1]
0.5529916 1.9117492 -0.81113183 -0.78969854 -1.4737383 -7.511658e-37 1.7367577e-18 -9.767184e-07
0.61744505 -3.7993807e-37 -0.56760734 -0.46361035 -0.8893486 -0.94585633 -1.4675924e-37 1.0446466
0.38470113 7.113958e-37 0.59000665 -0.5599027 -1.2821229 7.0953696e-37 -1.5440571 -7.0559624e-37
-6.8780446e-37 -0.9158786 -0.6084569 -1.1477396 3.5931788e-37 0.4881189 0.45748383 5.5169703e-37
-1.438934 1.0018086 -6.538492e-39 -5.193375e-27 0.5192361 6.5825105e-37 0.79458684 0.54905385
-1.2804626 -1.0210016 -0.6886049 -0.79679394 -1.4720874e-37 -1.3612009 -1.1572043 3.9064192e-37
-0.6045666 0.60598814 -0.6198119 0.2932202 0.41106594 1.4986055 7.2266504e-37 0.8131017
0.46814227 0.263535 -1.1716357 -7.1414717e-37 0.9820337 5.1415972e-37 0.569173 -0.56367576
-0.795509 7.558879e-21 -0.9645195 -0.69697654 -1.1288439 0.7579511 -0.6865714 0.5487594
-0.9472696 -0.85604423 0.25317064 0.3916754 -1.6211362 1.8122741 -0.49890202 -2.4170167
0.009843382 -1.4984046e-06 -0.7654711 -6.7057103e-38 -0.84356695 -1.233722e-36 5.7815664e-37 0.005983971
0.36252406 1.0693241 -1.3944335 -0.8965566 0.45979673 0.5213035 7.2663253e-37 -0.6975876
0.5368043 -1.0738512 -1.4572446 7.1159627e-37
00000000: dc90 0d3f 33b4 f43f 56a6 4fbf af29 4abf
00000010: 75a3 bcbf c59b 7f83 6d26 0022 ca17 83b5
00000020: e110 1e3f 4649 0183 b74e 11bf 565e edbe
00000030: 5aac 63bf a423 72bf 22c2 4782 fbb6 853f
00000040: 8cf7 c43e 5013 7203 ad0a 173f c955 0fbf
00000050: 9a1c a4bf 6371 7103 aaa3 c5bf 1a1a 7083
00000060: 380c 6a83 0577 6abf d5c3 1bbf 22e9 92bf
00000070: 018a f402 b8ea f93e 523b ea3e 97bb 3b03
00000080: fd2e b8bf 443b 803f a832 4780 14bb cd93
00000090: a8ec 043f c1fd 5f03 0b6a 4b3f cb8e 0c3f
000000a0: 33e6 a3bf 2eb0 82bf 6948 30bf b0fa 4bbf
000000b0: c25e 4882 d53b aebf 451f 94bf b6ed 0403
000000c0: e0c4 1abf 0a22 1b3f feab 1ebf f520 963e
000000d0: 3c77 d23e 4ed2 bf3f 01e9 7503 6f27 503f
000000e0: 58b0 ef3e 0fee 863e 29f8 95bf fe02 7383
000000f0: 9066 7b3f a1f5 2e03 52b5 113f 0e4d 10bf
00000100: 7aa6 4bbf 7fc8 0e1e c0ea 76bf 0e6d 32bf
00000110: f57d 90bf 1509 423f 25c3 2fbf 7f7b 0c3f
00000120: 4380 72bf b725 5bbf 959f 813e ae89 c83e
00000130: 6481 cfbf 99f8 e73f 1670 ffbe 67b0 1ac0
00000140: 2346 213c ca1c c9b5 eaf5 43bf fb8b b681
00000150: 01f4 57bf 2ce8 d183 8cbc 4403 3015 c43b
00000160: c19c b93e 9ddf 883f cc7c b2bf bc84 65bf
00000170: 7a6a eb3e 2574 053f 9f42 7703 1a95 32bf
00000180: 026c 093f f573 89bf fe86 babf c724 7203
