app/src/main/res/raw/mobile_classifier_kiwi.onnx (onnx, 13755 bytes, 3 tensors)

coefficient f4 [60, 50]
000000 e7 9a b3 be b9 48 ac 3e 44 a9 91 3f 15 51 06 40
       -0.3507912 0.33649233 1.1379781 2.0986989
000010 07 cb 7a bf 39 32 6b 3f 23 9e b3 bf d0 3f 94 bf
       -0.97966045 0.9187351 -1.4032634 -1.1581974
000020 44 b7 33 be f7 65 69 3f 5d a3 d2 3d 53 4c 0b 3e
       -0.17550379 0.9117121 0.10285065 0.13603334
000030 e1 60 4e 3e 2c be 5a 3f f4 bf 0f bf 25 db 15 bf
       0.20154144 0.8544643 -0.5615227 -0.58537513
000040 57 26 9f bf 46 2a 09 3f 72 54 e1 bf 41 c3 b0 3d
       -1.2433575 0.5358013 -1.7603896 0.08630992
000050 6d 52 a2 3e 61 bd ca bf 86 dd a1 be a9 3e 83 3f
       0.3170351 -1.5839044 -0.3161432 1.0253497
000060 58 6c 51 be b2 21 cd be 9b d0 e3 be c3 78 c9 3c
       -0.20451486 -0.4006477 -0.4449509 0.024593716
000070 a9 98 49 be cd e7 64 3f a6 60 ae 3e 35 87 cf bf
       -0.19687141 0.894162 0.34058112 -1.6213137
000080 b4 92 65 3d 12 fb 00 3d c0 29 8a be a1 48 13 3e
       0.05604811 0.03148944 -0.26984978 0.14383174
000090 91 ca e0 bf 57 91 0b 3f e2 21 5e 3e d6 b7 d8 be
       -1.7561818 0.54518646 0.21692613 -0.42327756
0000a0 7e 1e 3b bf 4b 6a 85 bf aa 13 cc bf 6b 10 97 3f
       -0.730934 -1.0423063 -1.5943501 1.1801885
0000b0 4f 0a 50 bf fa e5 e6 3e b8 1e 17 3f 09 0c 5d bf
       -0.8126573 0.45097333 0.5903125 -0.8634649
0000c0 32 e6 7d bf 5f c5 2e 3e 9f 74 4a 3f ca 4b 13 3d
       -0.99179375 0.17067479 0.790842 0.03596095
0000d0 59 5c 8c be 5c 6a 29 3f 03 e7 88 be 90 dc 48 3e
       -0.27414206 0.66177917 -0.26738748 0.19615388
0000e0 c5 7a de bd 94 84 5e be dd 85 03 be 0e e0 8d 3e
       -0.1086326 -0.21730262 -0.12844034 0.27710003
0000f0 56 bc 91 bf be 83 62 bf b1 c3 49 bf b2 90 4e 3f
       -1.13856 -0.8848227 -0.78814226 0.8068954
000100 e2 0b 12 be 65 0f 8c bf 7d 04 72 3d 63 9b 17 be
       -0.14262345 -1.0942198 0.05908631 -0.14805369
000110 eb 4d fd 3c 21 e6 20 bf cb 9a 93 3e 19 5f 7b be
       0.030920943 -0.6285115 0.28829035 -0.24547996
000120 d4 57 ae 3d 91 d8 08 3f e9 17 53 be 7c cd 84 3c
       0.08512846 0.53455454 -0.2061459 0.016211264
000130 cf ec 7a be d0 1f 93 bf d4 10 1a be 50 fc 55 be
       -0.24504398 -1.1494083 -0.15045482 -0.20897031
000140 d0 7e 54 be 28 65 98 be a7 48 df bd 18 c5 92 3e
       -0.207515 -0.29764676 -0.10902529 0.28665996
000150 36 4d 7c 3e 4b 2b d1 3e 91 5e 0c 3e e9 88 06 be
       0.24638829 0.40853342 0.13707949 -0.13138165
000160 c2 40 0d bf d0 3b 89 bf 6e 32 1a bf f3 2b 15 3f
       -0.5517694 -1.0721378 -0.602332 0.58270186
000170 a6 ff a4 bd 68 00 84 be a0 5d dc 3d 5a ad 9b be
       -0.080565736 -0.2578156 0.10760045 -0.30405694
000180 c3 55 60 3e a8 0e af bf 97 2b b5 bf aa a9 31 3d
       0.21907715 -1.3676348 -1.4153928 0.043374695
000190 e4 83 0a be 1b c1 42 bf d1 e4 6e be c4 92 47 3f
       -0.13526875 -0.76075906 -0.23329474 0.7795832
0001a0 f5 46 9a be b9 52 25 3e f9 1e 11 bf 1e 32 05 bf
       -0.3013226 0.16144837 -0.56687886 -0.520296
0001b0 ef 7e 03 be e7 0b 11 bf ff 3d bb be e5 4c 58 bf
       -0.1284139 -0.56658787 -0.36570737 -0.8449233
0001c0 3e 6d 8e 3c 36 ed 3d 3f 66 14 85 bb f3 d9 91 be
       0.017386075 0.7419008 -0.0040612696 -0.28486595
0001d0 d7 fa 96 be c3 72 c4 bd 02 2d 51 3e f0 9c 10 bf
       -0.2948825 -0.095922016 0.20427325 -0.5648947
0001e0 5e dc 9c 3e 3e f9 b6 be 16 1e b1 be e3 c1 05 3f
       0.30636877 -0.35737032 -0.34593266 0.5224897
0001f0 de 7c c9 bd 3e ac a5 3e c5 e1 fc 3c ea 00 13 bf
       -0.0983827 0.32357973 0.030869374 -0.5742327
000200 72 f5 5c be fc c8 93 3d 36 88 69 3e b7 79 2b be
       -0.21578005 0.07216069 0.22805867 -0.1674565
000210 d4 71 4d bc 28 9d dc 3e 6e b3 1a 3f 05 a1 24 3f
       -0.012539346 0.4308865 0.6043004 0.64308196
000220 cf 57 ac be 2d 89 df 3e af 43 28 bf 99 7a 97 be
       -0.33660743 0.43659344 -0.65728277 -0.29585722
000230 90 db 22 3f 56 ca bd 3c e8 8f e1 be 82 63 e3 be
       0.63616276 0.02316777 -0.44055104 -0.44411856
000240 b2 50 98 3e 9b 55 31 bf a8 c4 96 3e e7 6b 8c bf
       0.29749066 -0.6927125 0.29446912 -1.0970429
000250 47 45 51 bf 24 5c b0 3e f7 55 a3 be 68 16 79 bf
       -0.81746334 0.34445298 -0.31901523 -0.97299814
000260 83 c9 ae 3e f9 a6 40 3f 4f 29 55 be 3e 19 01 3f
       0.34138116 0.7525478 -0.20816539 0.5042914
000270 f9 04 7a bf 29 8f 34 bf d5 7d af be 0d 5b 18 bf
       -0.9766384 -0.70530945 -0.3427569 -0.5951393
000280 f0 f2 cb bd 24 83 d4 bc b5 3f 7b 3e 38 84 f1 3e
       -0.09958446 -0.025941439 0.24536021 0.47171187
000290 5e 2e a7 be 25 b3 1d 3e de b2 67 bf d0 e6 f7 bd
       -0.32652563 0.1540037 -0.90507305 -0.12104571
0002a0 dd ea f1 be 71 58 86 be a7 cf 00 3f df f1 0a bf
       -0.472495 -0.2623935 0.5031685 -0.54275316
0002b0 20 5b 04 bf b0 bc 51 3f 47 c8 12 bf 66 c2 14 3e
       -0.51701546 0.8192854 -0.5733685 0.14527282
0002c0 6b bc a0 be be 7d af be 71 82 60 be 33 ff b4 3e
       -0.31393752 -0.3427562 -0.2192476 0.35350952
0002d0 2b 61 20 3f c7 ab 63 bf 77 51 19 bf f0 53 da 3e
       0.62648267 -0.88933986 -0.5988993 0.42642164
0002e0 34 70 9b 3d be 1a e2 3e a0 3f 50 bf 06 1d c1 3e
       0.075897604 0.44161028 -0.81347084 0.37717456
0002f0 f7 dc e5 3d a0 5b fe 3c c3 02 9f 3e 09 6b 93 bd
       0.11223786 0.03104955 0.31056795 -0.0719815
000300 fb cc 34 bf 87 d6 92 3e 71 8c af 3e 1e 2d de bd
       -0.70625275 0.28679296 0.34286836 -0.10848449
000310 2d b6 d1 3d 1d 38 c9 be 4f 17 1f bf 1d 02 de 3e
       0.102398254 -0.39300624 -0.6214494 0.43360987
000320 11 ac 46 3f 0a 96 9e bf 38 83 14 be 4c d4 d9 bd
       0.776063 -1.2389538 -0.14503181 -0.106361955
000330 dd e4 e1 be 26 5e ba 3d 92 90 56 bd 02 95 f9 bd
       -0.4411992 0.09099989 -0.052383967 -0.12186624
000340 52 2f ba bd d8 bb 0e bf c9 60 17 bf da 3f 38 bf
       -0.09091057 -0.55755377 -0.5913206 -0.7197243
000350 18 31 84 be e1 1f 14 3f f1 b7 73 3b 45 54 3e be
       -0.25818706 0.57861143 0.0037188495 -0.18586834
000360 7b ab 6a 3d ae c6 c6 be 32 98 b7 3e 1b 28 11 bf
       0.057292443 -0.38823456 0.35858303 -0.5670182
000370 d8 69 3c 3f 2c 76 94 be b7 f7 68 be f4 9d 6c 3e
       0.73599005 -0.28996408 -0.22750746 0.2310713
000380 3e 91 f6 be 08 65 45 3e 8d 58 44 3c 7f 62 e6 be
       -0.48157686 0.19276822 0.011984003 -0.44997022
000390 a6 5b f9 3d 4e e7 fc bd 41 89 d7 3e 28 56 16 3e
       0.12175684 -0.12348805 0.42096904 0.14681304
0003a0 e9 2b fd be 68 0f 1c 3f d2 ec 19 3f 8a 1b 17 3f
       -0.49447563 0.6096101 0.60126984 0.59026396
0003b0 43 8d 89 3d 10 7c 1f be 26 cd 2a bf 10 e4 d7 be
       0.06716397 -0.1557467 -0.6671928 -0.42166185
0003c0 fb 86 d3 3e 64 80 b4 3e ee 9f 07 bd fe 8a bc be
       0.4131392 0.35254204 -0.033111505 -0.36824793
0003d0 38 86 e6 3e 7e f6 d1 be fa 12 e9 3d da d7 ef bc
       0.45024276 -0.4100837 0.113805726 -0.02927773
0003e0 8c 42 72 bf 59 cd 4b 3e 5e 22 b4 3e e8 7d 87 bf
       -0.9463279 0.19902553 0.3518247 -1.0585299
0003f0 b8 8f ce bb 8c e0 d7 bd 98 e8 cf be 88 eb 0d 3e
       -0.0063037537 -0.10540876 -0.40607142 0.1385938

intercepts f4 [1, 50]
000000 8a d1 22 bf 4b ee 86 3f 75 8a a4 3f 7b 9f 68 bf
       -0.6360098 1.0541471 1.2854754 -0.9086835
000010 5e 6f fe bf a8 c4 9d 3f dc 76 e6 3f da 1b a5 3f
       -1.9877737 1.232564 1.8005023 1.2899125
000020 ce 24 78 3e 49 2f a5 3f c4 6f 87 3f 54 c3 76 3f
       0.2423279 1.2905055 1.0580983 0.963918
000030 8d 47 ac 3f d6 0b 3b be f0 b2 54 40 67 ee 3d 3f
       1.3459336 -0.18266234 3.3234215 0.741919
000040 c5 d0 bb be df 6f 1a c0 a5 e3 06 3f 76 c6 f4 3e
       -0.36682716 -2.413078 0.5269111 0.47807664
000050 df 59 f1 3f c4 68 68 3d c0 83 8b 3f 1c d9 e2 3f
       1.8855551 0.056740537 1.0899582 1.7722507
000060 75 88 7e 3f 33 20 83 c0 70 53 84 be 76 af 0c c0
       0.99426967 -4.0976806 -0.25844908 -2.1982093
000070 86 30 02 bf 5b 36 8c 3f 0d 6e a8 3f cc 24 cf 3f
       -0.5085529 1.0954088 1.3158585 1.6183105
000080 d9 31 f9 3f 11 63 a8 bf 89 72 da 3f 65 54 09 c0
       1.9468337 -1.3155233 1.7066203 -2.145776
000090 5e 96 b6 3d cc d5 ab 3f 2d f8 6c 3f 06 dd b0 bd
       0.08915399 1.3424621 0.92566186 -0.08635907
0000a0 35 f5 81 be 75 b7 ef bf 10 b5 58 3f 7e 2a 27 bb
       -0.2538239 -1.8727862 0.8465128 -0.0025507505
0000b0 db 01 84 bf b7 0e 20 3e d3 50 13 c0 1c bd f4 bc
       -1.0313066 0.15630613 -2.301808 -0.02987533
0000c0 d7 5f 97 bf 06 3c f2 3e
       -1.1826123 0.4731142

coefficient1 f4 [50, 1]
000000 86 80 68 40 85 99 25 40 8a 90 cf bf d4 08 82 c1
       3.6328444 2.587495 -1.6215985 -16.25431
000010 7e 05 ad 40 35 e1 96 bf 19 a7 36 3f e3 ab a0 3f
       5.4069204 -1.1787478 0.7134872 1.2552456
000020 50 29 94 3f 43 d6 82 3f 5a 04 97 bf 95 d5 94 c0
       1.1575108 1.0221637 -1.1798203 -4.651072
000030 3e 6e 22 c0 65 a6 26 3f e8 0d c8 3f b2 bd 77 c0
       -2.5379786 0.6509765 1.5629244 -3.870953
000040 bb 04 ba 3f 3b e7 12 c0 8d ac 04 40 0c 5c 1d bf
       1.4532694 -2.2953632 2.0730317 -0.6146858
000050 b4 79 fd bf 25 74 4a 40 0f e7 de 3f c1 95 cf bf
       -1.9802766 3.163339 1.7414263 -1.6217576
000060 e5 c2 7e 3f 34 ac 5b c0 22 2c 00 40 36 57 1e c0
       0.99516135 -3.4323854 2.0026937 -2.474073
000070 0d 70 cd bf c3 f4 ad bf 31 3e 32 c0 b3 1f d0 3f
       -1.604982 -1.359032 -2.7850459 1.6259674
000080 22 04 eb 3f 39 0e 57 40 14 49 2d 3f fd 25 cf 40
       1.8360636 3.360243 0.67689633 6.4733872
000090 65 a7 91 40 ea c0 07 c0 4e a5 20 c0 86 1c 32 c0
       4.551684 -2.1211495 -2.5100894 -2.782991
0000a0 a2 1a 5a c0 f0 c7 a2 40 cb 61 84 40 6d bc ba bf
       -3.4078755 5.0869064 4.1369376 -1.4588753
0000b0 89 7d 03 40 55 fb 15 c0 76 06 4c bf ae 78 ba c0
       2.054537 -2.343465 -0.7969736 -5.8272314
0000c0 a4 9a fb bf 17 90 12 bf
       -1.9656568 -0.57251114
